best_model_weights/125.pth (torch, 399408 bytes, 4 tensors)

fc1.weight f4 [125, 784]
00000000: 73dd ddbc 2143 d1bc 055d bdbc 4a88 dd3a
00000010: 6dbd 00bd 554c 993c e48d 053d 4270 a0bd
00000020: 2ebb 073e a4dd aabe 92e3 29bc babd ae3d
00000030: d63a 8fbe 91be 8a3e e868 523e e6fc 1d3e
00000040: 6890 2bbe 18d6 6cbe 6f0b 19be 5448 2cbc
00000050: 8280 04bc 79a0 3abd 97ae 98bd adf8 8dbd
00000060: f7fc 84bb 4c7c babc eee4 0ebb 93fb 39bc
00000070: 0af2 3dbc 13fd ce3b 0c5d e9bc 45cb acbc
00000080: 208e cdbd c682 12be f1e4 3abe fa9b b5bd
00000090: 7aa9 f5bd 74ba 573d 2c24 96bc ebe5 463e
000000a0: 596c 1f3e 43be 833e 5fff 003d 1d1b 423e
000000b0: c775 cd3c eaab b43d d0a0 423e 75ad 4a3e
000000c0: db3a 883e 8e70 a3bd 6533 cdbd 3864 093d
000000d0: 3a73 db3c bbbf 0dbd cae7 8c3b e163 623c
000000e0: 9c48 ac3b de2c ac3c 8158 45bb aecb 953c
000000f0: ef57 22be 0b8c 1cbe 03fa 9a3d 03cd 7cbe
00000100: 721b b9bd 6906 7f3e a512 9d3b b03d e23d
00000110: deb8 603e da57 1d3d b188 963d 5f0f 003e
00000120: de37 3b3e 2608 3f3e 43ff 653e 3d81 803e
00000130: f530 2c3e f134 4fbd 1bcf 44bd d3bc e7bd
00000140: 7c4c b53c 83ab aa3c ba67 92bc fc85 81bc
00000150: f7c1 b13c 4e61 273c 40ff 983c d1e0 7e3d
00000160: d257 013e 48e5 0bbe ebf0 9b3e 49fa 40be
00000170: 25c4 59be e024 743e fc09 dc3d e814 9a3c
00000180: 3250 7dbc 9672 003e e798 9b3d 428d 1e3e
00000190: cb17 893e 36fa 213e d1d4 04be b837 ccbd
000001a0: ffdb 6cbe 13ec dcbc 25d1 3bbe c0d3 a8be
000001b0: 4d52 12be 856e f0bc f019 023d 58e5 11bd
000001c0: c345 f03c bc36 33bc 7390 563e eb6c 543e
000001d0: 39f0 943e acbd 21be 32df 923e e559 633e
000001e0: b1d9 113e 1753 153e 490c c43d 3e71 0f3e
000001f0: 5cfb b7bd e55b 1e3e a206 213e 3939 403d
00000200: b95a df3d a604 5c3e ed6e 82bc b215 1a3e
00000210: 28b8 12bc 3081 7cbe 8008 77be a103 46be
00000220: 5dc2 3bbe c748 233c 7eb8 eabd ca75 433c
00000230: 935b 2abc 6efd aa3b 9bdb a4bd 6af2 833e
00000240: 956d ddbc 7270 17be c135 a3bd ac83 533e
00000250: a1c2 9f3c 4d26 4f3d 2e81 903d 0341 043b
00000260: 27d6 e7bb ecec 363d 348d af3d 0f83 ee3c
00000270: a367 5d3d 0964 883d 26d0 a43b 0122 e83d
00000280: b0d6 213e 488f c43e 8df7 65be 2cdf 1ebe
00000290: 24a6 3ebb d393 063e b2e6 0c3c 6776 9ebc
000002a0: b93a 79be 058d 81be 6e98 65be 40d7 18bd
000002b0: ce66 633e 6f65 3f3e 1a9b 383e b928 f33d
000002c0: b369 453e 278b ad3d 1732 0c3d 6647 d53c
000002d0: 2999 84bc d6a3 853b 3867 94bc 616b ac3c
000002e0: f288 c8bd 053d 04bd c888 233d e68e 1f3d
000002f0: 2cff cd3d ca4a ac3d 36a9 5ebe a2e5 823d
00000300: e899 383e 2fa5 623e 7a10 5f3e 4e4c 0abc
00000310: 2738 51be c338 29be 7a8d 893e 2755 60be
00000320: 8701 473e 2983 3d3e 6df6 e73d 4d44 a83d
00000330: 8a56 943c a8cf 033e 42fe 6c3d 503f 8d3d
00000340: fa1b 4dbd daae 21bd 4219 98bc 74b6 abbd
00000350: a73d 87bd 723b 6bbd f699 39bd c29e 253d
00000360: 8d17 843d 5936 693e 4ead 4a3e 565f 483e
00000370: 9b2e fe3d 0197 f2bd b889 3e3e c1f9 27be
00000380: 29ec 8dbe 4319 443d 83bf f83d 6a90 1e3e
00000390: f20c 773d 79c5 6c3d 88e1 ae3d 85a9 473d
000003a0: 8b41 ab3d 2cea ab3d 69fc 8a3d 25c3 dabb
000003b0: 6421 10be 1aed c4bd 27cd 86bd a1a5 87bd
000003c0: d5e3 45bd 850f 45be 62f8 97bd 5e51 48bd
000003d0: 9a63 44bb 5f25 42bd 84a3 debb 59a1 053d
000003e0: cab6 ac3c f351 9dbe 389f 6abe b944 80be
000003f0: 5a68 f1bd 6008 a33d 86da e63d 2022 a73d
-0.027083134 -0.025544705 -0.023115644 0.0016901579 -0.03143065 0.018713156 0.03260602 -0.078339115
0.13254997 -0.33372223 -0.010369198 0.08532281 -0.27974576 0.27098516 0.20547831 0.15428504
-0.16754305 -0.23128545 -0.14945768 -0.010515291 -0.008087279 -0.045563195 -0.07455175 -0.06932197
-0.004058476 -0.022764347 -0.0021803933 -0.011351484 -0.011593351 0.00631679 -0.028486751 -0.02109302
-0.10036874 -0.14307699 -0.18251397 -0.08867641 -0.11995216 0.05266805 -0.018327795 0.19423644
0.15568675 0.25731096 0.03149354 0.18955655 0.025080575 0.088218525 0.19006658 0.19792731
0.26607403 -0.079804525 -0.10019568 0.03354284 0.026788343 -0.034606677 0.0043000923 0.013817758
0.005257679 0.021017488 -0.0030112567 0.018285599 -0.15853857 -0.15287797 0.07567217 -0.24687581
-0.09038438 0.24904789 0.0047934824 0.11046922 0.21945521 0.03841386 0.073502906 0.12505864
0.1828303 0.18655452 0.22460656 0.250986 0.1681555 -0.0505876 -0.048049074 -0.11315312
0.022131197 0.020833736 -0.017871726 -0.015810959 0.021698935 0.01021607 0.0186764 0.06222612
0.12631157 -0.13661683 0.30457243 -0.18845476 -0.2126623 0.23842192 0.10744092 0.018808797
-0.015461015 0.12543711 0.07597523 0.15483573 0.26775965 0.15818104 -0.12971808 -0.09971565
-0.23130797 -0.026968038 -0.18341501 -0.32974052 -0.14289208 -0.029349575 0.031763017 -0.03561911
0.02933014 -0.010938343 0.2095354 0.20744674 0.29089525 -0.1579501 0.2868591 0.22202261
0.14243199 0.14582478 0.09572656 0.14008042 -0.0898349 0.15464742 0.15725186 0.04692957
0.10905976 0.21486148 -0.015922034 0.15047339 -0.008955039 -0.24658656 -0.24124336 -0.19337322
-0.18335862 0.009966082 -0.1146097 0.011929939 -0.01039781 0.0052181995 -0.08049699 0.25770885
-0.027029792 -0.14788988 -0.07969237 0.20655698 0.019501986 0.050573636 0.07055889 0.0020180352
-0.0070750895 0.04465954 0.08571854 0.029115228 0.054053914 0.06659705 0.005029696 0.11334611
0.15804553 0.38390565 -0.22457714 -0.15514821 -0.0029090727 0.13142328 0.008599924 -0.019343568
-0.24338807 -0.25302902 -0.22421429 -0.037314653 0.22207186 0.18691038 0.18027917 0.118730016
0.19278602 0.08473807 0.034227457 0.026035022 -0.016186314 0.0040783687 -0.018115625 0.021047296
-0.09791745 -0.032284755 0.039925367 0.038954638 0.10058436 0.084127024 -0.21744236 0.06391455
0.1802746 0.22133325 0.21783629 -0.008441044 -0.20431577 -0.16525559 0.2686575 -0.21907483
0.19434176 0.18507065 0.11326299 0.08216152 0.018107671 0.12872183 0.057859667 0.068968415
-0.05007551 -0.039473392 -0.018566731 -0.083844095 -0.06603556 -0.05742974 -0.045312844 0.040434606
0.064498045 0.22774638 0.19792673 0.19567618 0.12411233 -0.11845208 0.18607223 -0.16403867
-0.27719238 0.047875654 0.12145903 0.15484777 0.06031508 0.057805512 0.085391104 0.04874565
0.08362111 0.08394274 0.06786425 -0.006676095 -0.14075238 -0.09615536 -0.065820985 -0.06623388
-0.04831298 -0.19244201 -0.07420422 -0.048905723 -0.0029966594 -0.04739892 -0.006794395 0.032624576
0.021083254 -0.30726585 -0.229123 -0.2505243 -0.117874816 0.07960582 0.11272149 0.08160806

fc1.bias f4 [125]
00000000: 3cbe 86bd 594f 353e a9b4 7c3e b2d6 d13d
00000010: 2c90 003e d67e 5f3c f3f5 bc3d e2e5 4b3e
00000020: dbfb ca3c 5587 3d3e e524 73bd 7853 113d
00000030: e53b 213e 4470 c83d 9ffb b23d 9776 773e
00000040: 7820 af3d ac96 c13d bfee 2dbd c325 fa3d
00000050: 9b55 313e b987 96bd ba41 e6bd 912a 1f3e
00000060: b855 37be 5c8f f3bd 013e f43d 2ec5 19be
00000070: 58a6 bd3d ffba 663e ce73 043e 70b1 de3d
00000080: 02a6 f03d 41ab debb 8b37 1a3e d49b d3bc
00000090: 5260 febd 405d d13d 1e34 d83d 82c9 23be
000000a0: 567e a4bc ed56 09be 36f4 773d 68c3 cc3d
000000b0: e26e 0abe 8204 cc3c c733 103e cb07 f33d
000000c0: c92b 513d 594a db3d bce2 cf3c 70a8 213d
000000d0: 8129 27be e1a3 693d e8d2 283e 45cf aabc
000000e0: afa2 c73d c061 acbe ec06 183e b01d 8c3d
000000f0: 37ea 913d aedd 79b9 6e38 2e3e 3b94 febd
00000100: 09fb 233e a1c1 f7bc 08d8 c73d 3178 30be
00000110: 2cf1 233e 2f2a 533e 628a 8f3d 350b 5abd
00000120: 2ccf 6ebd d555 823d 3139 6f3d 01e0 81bd
00000130: 7189 cfbd 34cf 413e 6173 14bb 56c0 ae3d
00000140: 188e a13d 55ad 1cbe 155d 0bbe 7191 733e
00000150: e5c9 043e 0efa 2c3e 0343 2fbc 4ad9 26be
00000160: 6599 b73d c8a5 c7bc abae f6bd c59b 253c
00000170: 671f bbbd 1543 13bd 28d0 8ebc 8254 e23d
00000180: 468a d03d 2e7c 4abe c98c 29be cbe0 163e
00000190: d654 a2bd 7f97 c5bd 3da1 8a3d f5dc 44bd
000001a0: 6abb 3abd b6fd 92bd 94e7 573c 0834 20be
000001b0: cef7 fdbc 71ad adbd ec83 fd3d f7d4 693d
000001c0: bb01 d43d 0188 09be 7a56 09be d623 b1bd
000001d0: 0c76 29be bdf9 f23b f591 14be 7517 a43d
000001e0: 646e 95bd 8dc3 473c dfb5 283e 4b44 b4bd
000001f0: 7bd2 2cbe
-0.06579253 0.1770605 0.24678291 0.10246028 0.12554997 0.01364108 0.092265986 0.19911912
0.024778297 0.18508656 -0.059361357 0.035479993 0.15745504 0.09787038 0.08739399 0.24166332
0.08551115 0.094525665 -0.042464014 0.12214234 0.17317812 -0.07350106 -0.11243005 0.15543582
-0.17903793 -0.11892578 0.11925889 -0.15016624 0.09260243 0.22532271 0.12934801 0.10873687
0.117504135 -0.0067953174 0.1506025 -0.02583114 -0.124207154 0.10222864 0.105568156 -0.15994838
-0.020079773 -0.13412066 0.060535632 0.09998208 -0.13518861 0.024904493 0.14082251 0.11866721
0.051067147 0.1070754 0.02537667 0.039467275 -0.16324426 0.057041053 0.16486704 -0.020850787
0.09747826 -0.33668327 0.1484639 0.068416 0.07124751 -0.00023829073 0.17013714 -0.124306165
0.16013731 -0.030243697 0.097580016 -0.1723335 0.16009969 0.2062156 0.07008816 -0.053233344
-0.058303043 0.063640274 0.05840415 -0.063415535 -0.10133637 0.18926698 -0.002265178 0.08532779
0.0788843 -0.15300496 -0.13609727 0.2378595 0.12967642 0.16892263 -0.010697129 -0.16293827
0.089648046 -0.024371043 -0.12045034 0.010107939 -0.09136849 -0.035952646 -0.017433241 0.11051275
0.101826236 -0.19773933 -0.16557612 0.14734189 -0.079263374 -0.09648036 0.06769035 -0.048062284
-0.04558889 -0.07177298 0.013177771 -0.15644848 -0.031001952 -0.08480347 0.12378678 0.057087865
0.103518926 -0.13430788 -0.13411894 -0.08649413 -0.16548938 0.007415025 -0.14508803 0.080122866
-0.07296446 0.012192619 0.16475628 -0.08802088 -0.16877167

fc2.weight f4 [10, 125]
00000000: cbbd 903d 361e 66bd 4762 193e 1644 5bbe
00000010: fcdc 7bbb 0f95 33be d673 f53d 08bc 85be
00000020: da36 3e3d b9e8 ab3d df27 303e b78c a7bd
00000030: a253 c0be 37df 6a3e 094e e53d 55e1 d0be
00000040: 76f2 df3d a97e b13e d75d 84bd adf7 203e
00000050: 5d52 f93d a113 db3d 41ed 483e cf9f e73d
00000060: b108 863e 1a6c c23d eb56 64be d346 373e
00000070: f11a b53e 2505 efbd fa9a 443d d0a1 01be
00000080: 5485 553e 7e55 5abe 8057 0f3e 2b4c d7be
00000090: aa26 c33d 886d 88bd 3fd1 f93d 7747 b93d
000000a0: 66fe 333e dc40 343e fd6a d03d 947d 1ebe
000000b0: dbd6 123e 7ae7 983d a53a abbe d293 f1bd
000000c0: de48 1bbe 28c7 41be 627f 04be 7bc7 39bd
000000d0: 27d6 553c 4ad3 44be 55fc 02bd 440f 5fbe
000000e0: 48dd bcbe 640b 313e c5c7 58be 78f4 2b3e
000000f0: a9c7 e9bd c640 123e ffa9 82be dbf7 01be
00000100: 9d0b 3ebe f74c 53bd 964a d1be 39aa 463e
00000110: 1b51 38be 28bd 02be ca20 b73d cdde 373e
00000120: 4232 12be 32a5 34be 09dc b23e e90f 083e
00000130: e9ae 233e 8b3a 333e 4737 2a3e fd15 3b3e
00000140: 8d91 213e a6f1 2a3e 338a 25be 79fa 00bf
00000150: e1e8 81be 11ab 99bd 86db 4abd 69c4 da3c
00000160: 2cb8 47be 356a 24bd 2a11 9d3e 6451 2abe
00000170: f355 82be ac45 1a3e 86d4 6f3d f84a 23be
00000180: 0527 c43d 0d58 333e a2e2 50be d64c 1c3d
00000190: 268a 273e 5596 3bbe a24c 9fbe 7acc 243e
000001a0: 7876 653e 4218 0abd 9195 083e bbca 063e
000001b0: 3e5d 1c3e 6392 483e c5ed 8bbe 6737 4fbe
000001c0: d9a6 22be b02e 6fbe 144e 0a3e 5f6b 153e
000001d0: c9cc 523d efe7 2bbe 2438 0c3e 25b7 d6bd
000001e0: f122 363e d5ec fb3d 72ae 78be 14bd acbb
000001f0: f6b4 303d db98 863b c60a 403e 9d4a 083e
00000200: 87af 163e 2aa8 573e a180 b43d 3452 60bd
00000210: 6543 dc3c 7a3a ec3d cc46 d23b 0b9b 0cbe
00000220: 504c 64be 682a 9d3e c09b 25be e803 0abe
00000230: 14a5 a93e 952e cf3d aa64 7b3e 4187 7f3d
00000240: 464d febd 0ab0 733e 97cb 39be fdb7 59be
00000250: e1a8 793d c772 5dbd 8bbc 3fbe 6e30 c4bd
00000260: 7969 3bbe d2e4 813e da58 2abe 4c23 81be
00000270: bd2e 933d 2aea 9f3e 38ef 35be 5fc9 943e
00000280: fa77 61be 02c2 3cbe a623 073e bbf3 edbd
00000290: ba66 22be 2245 2bbd 88c7 23be 44fb 7cbd
000002a0: 3a93 723d 7489 8abe fdd4 323d 7196 04be
000002b0: 9371 8c3e 6ccb 523e eb16 ac3d fdef 2d3e
000002c0: 0c09 f23d 9ce8 ccbd 4e82 48bc 570f 47be
000002d0: a034 53be 5936 a43e 7762 dabc 5113 753e
000002e0: fa9c 093e 9c2b cf3d 2adc 4c3e 4025 43be
000002f0: c35d 2d3d 20d2 723d 85d7 033d b6c2 45be
00000300: 33a1 08bd ab9d ce3d f58f b53d 1d44 07be
00000310: 9369 2cbe 61a1 b03d 9104 3b3e e355 7e3e
00000320: 14dc 393e 5230 86bd e4e0 46bd c109 2abe
00000330: 8835 403c 179e 47be 395d fbbd a7de 2d3d
00000340: e1fc ad3e c1b1 543d dccb c43d 8c7e 353d
00000350: 3396 66bd 3d11 053e 99f6 ed3c cc4c 6d3d
00000360: 00b9 e9bc 8e71 51bd 8acc b0bd 2e8d 283e
00000370: 13bb 483e 9d18 093e 66f3 bdbd ded7 53be
00000380: c29f 053e 9b98 0dbe 56fc 0dbd d9d1 6c3e
00000390: ac67 2b3e 28d7 ee3d 6932 2ebc e782 033c
000003a0: 9574 40be 008d a7be e53c 04be 4fe3 093e
000003b0: ba2e 2b3e 459f 9a3d 1bbd 31be ce58 4abe
000003c0: ed6a 1abe c5cb 54be 190c 43be b296 54be
000003d0: e67f 3ebe a48e 01be 2a2e a8be f8da 163e
000003e0: c150 4fbe 64b5 75be 8cba 05be 872a cbbd
000003f0: d872 b3be 8bcb d3be 31a5 b1be c18b b93d
0.0706745 -0.056181155 0.14978896 -0.21412691 -0.0038431277 -0.1753733 0.119849846 -0.2612002
0.04643903 0.08393998 0.1720271 -0.08181136 -0.37563807 0.22936712 0.11196525 -0.40796915
0.10934918 0.34666947 -0.06463211 0.15719481 0.12173913 0.10697103 0.19621755 0.11309778
0.26178506 0.09493275 -0.22298782 0.17898111 0.35372117 -0.11670903 0.04799936 -0.12659383
0.20851642 -0.21321675 0.13998222 -0.420503 0.09528859 -0.066615164 0.12198114 0.09046834
0.17577514 0.17602867 0.101766564 -0.15477592 0.14339773 0.07466026 -0.3344318 -0.117957726
-0.15164515 -0.18923628 -0.12939218 -0.045356255 0.013051546 -0.19221225 -0.031978924 -0.21783167
-0.36887574 0.17289501 -0.21169956 0.16792476 -0.11415035 0.14282522 -0.25520322 -0.12692206
-0.18559118 -0.05158707 -0.40877217 0.19400872 -0.1799969 -0.1276747 0.08941801 0.17956086
-0.14276984 -0.17641142 0.34933499 0.13287319 0.15984692 0.17502801 0.16622649 0.18270107
0.1577818 0.16693744 -0.16166 -0.5038219 -0.25372985 -0.075033315 -0.04952576 0.026704984
-0.1950385 -0.04014035 0.30677158 -0.1663261 -0.254562 0.1506564 0.058552288 -0.15946567
0.09577755 0.17514057 -0.20398954 0.038159214 0.16361293 -0.18319066 -0.31113154 0.16093627
0.22408473 -0.03371454 0.13338305 0.13163273 0.15269944 0.19587092 -0.2732984 -0.20235978
-0.1588396 -0.23357654 0.13506347 0.1459174 0.05146483 -0.16787694 0.13693291 -0.10484151
0.17786767 0.123010315 -0.24285296 -0.0052715633 0.043141328 0.0041075773 0.1875411 0.13309713
0.14715396 0.21060243 0.088135965 -0.054765895 0.026887605 0.11534591 0.006417131 -0.13731019
-0.22294736 0.30696416 -0.16172695 -0.13478053 0.33133757 0.10116307 0.24550119 0.062384848
-0.124170825 0.23797622 -0.1814407 -0.21261592 0.06095207 -0.05406454 -0.18724267 -0.0957955
-0.18301953 0.2536989 -0.16635457 -0.25222242 0.07186649 0.3123334 -0.17767036 0.29059884
-0.22018424 -0.18433383 0.13197193 -0.116187535 -0.158595 -0.041813977 -0.15994084 -0.061763063
0.059222437 -0.27057993 0.043660153 -0.12948014 0.274304 0.20585412 0.08402809 0.1698608
0.11818132 -0.10005304 -0.012238098 -0.19439445 -0.20625544 0.32072714 -0.02665828 0.2393315
0.13438788 0.1011574 0.20005861 -0.19057178 0.042325746 0.059282422 0.032187957 -0.19312558
-0.033356857 0.100886665 0.08865348 -0.13209577 -0.16837148 0.086245306 0.1826346 0.2483745
0.1815036 -0.06552185 -0.048554316 -0.16605283 0.011731513 -0.194939 -0.1227364 0.042448666
0.33981994 0.05192733 0.096091956 0.044310138 -0.056295585 0.12994857 0.029048251 0.057934567
-0.028530598 -0.051133685 -0.08632763 0.16460106 0.19602613 0.13388295 -0.0927494 -0.20687816
0.13049224 -0.13827746 -0.034664474 0.23126926 0.16738766 0.116621315 -0.010632136 0.008026815
-0.18794473 -0.32724762 -0.12913854 0.13465618 0.16717044 0.075499095 -0.17357294 -0.19760439
-0.15079851 -0.20780857 -0.19047584 -0.2076061 -0.18603477 -0.1265207 -0.3284772 0.14731967
-0.20245649 -0.23994976 -0.13059443 -0.09920221 -0.35048556 -0.41366228 -0.34696344 0.09059859

fc2.bias f4 [10]
00000000: 9513 0ebe bcc5 d13d 7c2f 3dbd aabc 1ebe
00000010: 9fdc 6fbd 376b b13d c0ca 5bbe 26b6 ee3c
00000020: 503b 05be 3310 97bc
-0.13874657 0.10242793 -0.046187863 -0.15501657 -0.05856001 0.08663028 -0.21464062 0.02913959
-0.13010907 -0.018440342
