best_model_weights/ce_loss.pth (torch, 383712 bytes, 4 tensors)

fc1.weight f4 [120, 784]
-0.031186812 -0.006022194 0.026411492 -0.028499477 -0.02069435 0.0032958689 -0.018183036 0.13201031
0.061149504 -0.21524219 0.07839378 -0.13326477 -0.10496679 -0.21644387 -0.00362267 -0.29437688
-0.20562178 -0.05223385 0.12804936 -0.11662653 0.05101987 0.05532165 0.048645712 0.037425537
0.03479572 -0.029285211 0.025238361 0.03564109 0.03426053 -0.033039212 -0.0006183514 0.031816237
0.12701644 0.12064899 -0.09519781 -0.0041483925 0.221315 0.07278817 0.05887918 -0.1961898
-0.21071364 -0.038818773 0.072757326 -0.17517565 0.045051217 0.14994565 0.19845991 -0.06230881
0.052790307 0.10493927 0.055732567 0.02894004 0.01711544 0.021899415 0.034011286 0.02523358
-0.014831327 -0.030202689 0.0026514786 -0.0014754066 0.11829927 0.14376983 -0.004678075 -0.014513345
0.13423993 0.1280974 0.05653989 -0.09785777 -0.2004667 0.041545786 0.059646707 -0.101813115
0.09528437 -0.022576807 -0.08550233 0.017189797 0.15527306 0.045209926 0.06087615 0.06477071
-0.0213191 -0.0072759395 0.0316283 -0.008529272 -0.005025932 -0.024312148 -0.019956691 0.14941941
0.19090174 0.34096968 -0.15652539 0.10946302 0.192372 -0.052149758 -0.18703716 -0.13210076
-0.0072484068 -0.07525442 0.10761764 -0.053504705 -0.11421752 0.09580414 -0.0073857787 -0.070161395
0.06035124 0.13355844 -0.07383637 -0.27691793 -0.06501724 0.030083666 0.025147308 0.02333722
0.020709107 0.005740958 0.16886202 0.2094887 0.066869654 0.056860145 -0.0797355 -0.19535157
0.04737777 -0.13554232 -0.09816736 0.058413047 0.083553694 -0.021456376 -0.12880151 -0.029503666
-0.02652761 -0.03661846 0.021984223 -0.012772322 0.12551656 -0.016710611 0.14197962 -0.26392138
0.11650753 0.06410452 0.059130628 0.021214167 -0.0036353173 -0.03384392 0.1705257 0.20542796
0.115522124 0.09350926 -0.16097987 -0.22007968 -0.2595194 -0.10889966 0.0073107504 -0.06946985
-0.08149075 -0.15032163 -0.10053725 -0.034822017 -0.09074321 -0.14686747 -0.06752158 0.018995613
0.0016771968 0.16406257 -0.12508966 -0.019816821 -0.17431058 -0.037526026 0.13296375 0.012928095
0.100049466 -0.13891688 -0.37299508 0.07225498 0.010639283 -0.26142842 -0.28702283 -0.29776004
-0.17714584 -0.08802856 -0.0096437875 -0.06831179 -0.10707478 -0.117118716 -0.054392613 -0.07888359
-0.096130274 -0.12976936 -0.039493375 -0.097069874 -0.09050181 -0.178511 -0.20722888 0.038769595
0.19543843 0.20032908 0.14188169 -0.019175164 0.022623798 0.0058121267 0.17249328 0.024455179
0.13388102 -0.1964527 -0.11575044 -0.21238129 -0.1566105 -0.11315753 -0.237873 -0.21075752
-0.070422515 0.043200813 0.062290408 -0.069171764 0.017660452 -0.06926211 -0.13415045 0.009934239
-0.10866517 -0.061858956 -0.14243944 -0.17914683 0.3073903 0.06649701 0.06473954 -0.16691189
-0.14989802 -0.0024254962 0.07852675 -0.015992483 -0.012190615 -0.002628133 -0.038229305 -0.10865308
-0.19348687 -0.2668624 -0.19055076 -0.040169146 -0.02571851 0.018017415 0.041153446 0.06466767
0.07494085 -0.030455077 -0.15728357 -0.12682045 -0.07506853 0.031592246 -0.029227467 -0.22804321
0.15614076 0.18993598 0.1591464 -0.08856014 0.030928021 -0.20371953 -0.04137405 -0.13992245
00000000: 7c7b ffbc d355 c5bb ea5c d83c bc77 e9bc
00000010: 3387 a9bc 81ff 573b 97f4 94bc b62d 073e
00000020: e777 7a3d 7368 5cbe eb8c a03d 8f76 08be
00000030: d4f8 d6bd 76a3 5dbe 516a 6dbb 91b8 96be
00000040: 848e 52be 29f3 55bd 5f1f 033e e4d9 eebd
00000050: 36fa 503d f498 623d ba40 473d 854b 193d
00000060: f585 0e3d 8ae7 efbc aec0 ce3c 64fc 113d
00000070: c554 0c3d 2054 07bd dc18 22ba be51 023d
00000080: 9910 023e d116 f73d 12f7 c2bd 3def 87bb
00000090: 66a0 623e f711 953d 4c2b 713d fbe5 48be
000000a0: 51c5 57be 6f00 1fbd cb01 953d 3f61 33be
000000b0: a087 383d 5a8b 193e 1339 4b3e 8637 7fbd
000000c0: a63a 583d 66ea d63d d547 643d aa13 ed3c
000000d0: ae35 8c3c 6766 b33c 6b4f 0b3d a7b6 ce3c
000000e0: 18ff 72bc a16b f7bc 6ec4 2d3b 6e62 c1ba
000000f0: e346 f23d 6638 133e 8a4a 99bb 62c9 6dbc
00000100: 3176 093e f72b 033e 5f96 673d a869 c8bd
00000110: 2547 4dbe ea2b 2a3d 1b50 743d 6583 d0bd
00000120: 7424 c33d fff2 b8bc d81b afbd 9ed1 8c3c
00000130: e7ff 1e3e 0b2e 393d 4559 793d 82a6 843d
00000140: 65a5 aebc 016b eebb ad8c 013d 5cbe 0bbc
00000150: 93b0 a4bb 452a c7bc 377c a3bc 6701 193e
00000160: bf7b 433e 9493 ae3e 3148 20be 262e e03d
00000170: 2afd 443e fc9a 55bd ab86 3fbe 6c45 07be
00000180: 0b84 edbb fd1e 9abd a366 dc3d c027 5bbd
00000190: e0ea e9bd f634 c43d 6704 f2bb c7b0 8fbd
000001a0: dd32 773d 8bc3 083e 8637 97bd 30c8 8dbe
000001b0: c227 85bd 0572 f63c ba01 ce3c b32d bf3c
000001c0: 25a6 a93c a51e bc3b 2aea 2c3e 3584 563e
000001d0: f5f2 883d 2fe6 683d 5e4c a3bd 3e0a 48be
000001e0: 310f 423d 9bcb 0abe f80b c9bd 8542 6f3d
000001f0: 331e ab3d 48c5 afbc 8be4 03be acb1 f1bc
00000200: 6e50 d9bc 3dfd 15bd 4218 b43c 0043 51bc
00000210: 6a87 003e b1e4 88bc 1b63 113e b420 87be
00000220: 809b ee3d 3b49 833d f532 723d 55c9 ad3c
00000230: 813e 6ebb ec9f 0abd 4a9e 2e3e b55b 523e
00000240: dd96 ec3d c881 bf3d e8d7 24be 915c 61be
00000250: badf 84be c906 dfbd 058f ef3b 3546 8ebd
00000260: 9fe4 a6bd eaed 19be 79e6 cdbd 88a1 0ebd
00000270: 93d7 b9bd 6d64 16be c148 8abd b09c 9b3c
00000280: 63d5 db3a 0500 283e 8117 00be e356 a2bc
00000290: 797e 32be e4b4 19bd a627 083e 5cd0 533c
000002a0: bce6 cc3d 3a40 0ebe 36f9 bebe 6bfa 933d
000002b0: 6350 2e3c f2d9 85be a8f4 92be 0174 98be
000002c0: b865 35be 5148 b4bd fa00 1ebc 0de7 8bbd
000002d0: 064a dbbd f0db efbd caca 5ebd b88d a1bd
000002e0: f3df c4bd 42e2 04be cec3 21bd 92cc c6bd
000002f0: 0359 b9bd 96cb 36be cf33 54be decc 1e3d
00000300: 0321 483e 1123 4d3e 6f49 113e 3c15 9dbc
00000310: 8b55 b93c a773 be3b 14a2 303e 3a56 c83c
00000320: 1b18 093e e62a 49be 910e edbd 7b7a 59be
00000330: 815e 20be 23bf e7bd fb94 73be d2d0 57be
00000340: ae39 90bd 56f3 303d 3a24 7f3d eda9 8dbd
00000350: a7ac 903c 4bd9 8dbd bc5e 09be 38c3 223c
00000360: d88b debd d15f 7dbd a5db 11be 4472 37be
00000370: 4362 9d3e 962f 883d 2a96 843d f3ea 2abe
00000380: de7e 19be 13f5 1ebb a2d2 a03d ab02 83bc
00000390: 25bb 47bc c13c 2cbb 5596 1cbd 8285 debd
000003a0: 6c21 46be 30a2 88be bd1f 43be 6788 24bd
000003b0: a0af d2bc 4299 933c 8490 283d 7c70 843d
000003c0: 977a 993d ed7c f9bc f20e 21be 38dd 01be
000003d0: 88bd 99bd df66 013d 716e efbc 2984 69be
000003e0: 5de3 1f3e 947e 423e 46f7 223e 055f b5bd
000003f0: c35c fd3c da9b 50be d677 29bd d547 0fbe

fc1.bias f4 [120]
0.13350312 0.12932149 0.20287281 0.051499475 0.101797566 -0.1917103 -0.14195366 -0.14432135
-0.17002408 0.0050135464 -0.15014169 0.10157271 -0.01633611 0.14692988 0.054384477 -0.1648308
0.007653281 0.077218235 0.020636711 0.2044219 0.051763285 0.18927461 0.102725215 -0.12705745
-0.024146246 0.052992813 0.18099453 0.2731962 -0.13056752 -0.12545466 -0.12752168 -0.10396091
0.13313976 -0.038168006 -0.09894159 -0.10683708 -0.030617602 0.21599506 -0.21484126 -0.15640377
-0.00864578 0.16279826 -0.08764855 0.15440589 -0.1727691 -0.16519298 -0.17980348 0.1354711
0.0822514 -0.18440765 -0.029591313 -0.0045888047 -0.15322171 -0.1889254 0.14253671 -0.06986379
-0.1327836 -0.04521929 0.09410591 0.1250951 0.16256534 0.064653404 -0.2037009 0.23152481
0.06438673 0.15687852 0.10087487 0.086581126 0.07208873 0.08621764 -0.13957718 0.17123507
0.061912 -0.20474757 -0.001100928 0.12763157 -0.034249026 0.19236046 0.001691076 0.0032637916
0.11846847 -0.007458242 0.012495352 -0.21051818 0.18173638 -0.101784326 0.10436531 0.18202183
0.0941414 0.18233457 -0.12550095 0.10400623 0.008816444 0.1135237 -0.1221228 0.13523878
0.18018806 0.16282743 -0.15835853 -0.14728788 0.13266471 0.12994897 0.10649978 0.12743174
0.19379082 -0.06274576 0.08960348 0.020841256 0.023359416 -0.19761127 -0.021895107 -0.087721996
0.050736763 0.16386095 0.06850996 -0.16599335 0.13769141 -0.143961 -0.09482366 0.04256996
00000000: 0bb5 083e da6c 043e e4bd 4f3e 1df1 523d
00000010: 3e7b d03d b44f 44be 4d5c 11be fac8 13be
00000020: cb1a 2ebe ad48 a43b bebe 19be 5a05 d03d
00000030: 4ed3 85bc c974 163e 42c2 5e3d 68c9 28be
00000040: 60c8 fa3b 9824 9e3d 520e a93c f953 513e
00000050: bd05 543d 34d1 413e 9961 d23d 591b 02be
00000060: 59ce c5bc fe0e 593d a156 393e 5fe0 8b3e
00000070: 7eb3 05be 3077 00be 0b95 02be 75e9 d4bd
00000080: ca55 083e 0e56 1cbd e3a1 cabd 66cd dabd
00000090: c4d1 fabc cf2d 5d3e 59ff 5bbe 4f28 20be
000000a0: 08a7 0dbc 96b4 263e 1581 b3bd 941c 1e3e
000000b0: 62ea 30be 5928 29be 671e 38be f0b8 0a3e
000000c0: 6c73 a83d 5cd5 3cbe 7b69 f2bc af5d 96bb
000000d0: 27e6 1cbe a975 41be 25f5 113e bf14 8fbd
000000e0: 6df8 07be dd37 39bd 99ba c03d ee18 003e
000000f0: 8777 263e 0169 843d f896 50be d714 6d3e
00000100: 31dd 833d c3a4 203e 7c97 ce3d 7251 b13d
00000110: 42a3 933d e092 b03d 52ed 0ebe 3f58 2f3e
00000120: 7097 7d3d 59a9 51be 044d 90ba dab1 023e
00000130: b548 0cbd 24fa 443e 18a7 dd3a 56e5 553b
00000140: 999f f23d 4564 f4bb 4eb9 4c3c 1492 57be
00000150: 1a19 3a3e 4d74 d0bd 7bbd d53d ee63 3a3e
00000160: 35cd c03d eab5 3a3e 5283 00be 3801 d53d
00000170: d972 103c 1d7f e83d 851b fabd 097c 0a3e
00000180: 3883 383e 3cbc 263e bd28 22be a2d2 16be
00000190: 42d9 073e 5811 053e 8f1c da3d 777d 023e
000001a0: 1a71 463e d980 80bd 0882 b73d 48bb aa3c
000001b0: 3f5c bf3c 9c5a 4abe 5e5d b3bc 97a7 b3bd
000001c0: 5ad1 4f3d 2acb 273e f34e 8c3d 29fa 29be
000001d0: fafe 0c3e 836a 13be e832 c2bd d75d 2e3d

fc2.weight f4 [10, 120]
-0.084207326 -0.18111007 -0.11601186 -0.23099856 -0.16798453 0.24961768 -0.2379286 0.17831744
0.024817077 -0.35715613 0.07137502 -0.14380375 0.0072618015 -0.10456325 0.22083852 0.13603424
-0.29379824 -0.42940587 0.26192984 0.08853727 -0.20519164 -0.30928433 -0.13604632 0.15979253
0.053968426 0.38294882 0.25128073 0.1895032 0.15573078 -0.31539345 0.23985931 0.35191324
-0.13728161 0.07132899 -0.11257744 0.16352408 0.31106243 -0.36778864 0.18222198 0.21764135
0.17329763 -0.22947244 0.1338465 -0.16565864 0.3271189 0.18664072 0.16703749 0.08817277
0.28958264 0.19078477 0.05620186 0.17007793 0.24679238 -0.4019091 -0.18234535 0.19176935
0.13962081 0.13601768 -0.20426269 -0.18087552 -0.21618202 -0.21629688 0.17698894 0.15149036
-0.16270505 0.19466949 0.06960786 -0.11792774 -0.22219224 0.29962444 -0.090224735 -0.08382954
0.09971645 0.14236096 0.181476 0.054486077 0.098123305 0.12944938 0.15950745 0.051164877
-0.24138322 0.06395501 -0.3274179 0.15138008 -0.41178122 0.18795082 -0.18328114 -0.056530908
0.18739164 0.20363893 0.1584172 -0.3932571 0.14192624 -0.041928772 -0.093042254 -0.10708498
-0.32517233 -0.15041947 0.20124362 0.18218783 -0.32926747 -0.05621462 -0.20670226 -0.13829793
-0.22681442 0.15735124 -0.22945064 -0.09896429 0.10293016 0.16237082 0.2832216 0.23464325
-0.16379514 -0.2498123 -0.40689573 0.16046526 -0.22900261 0.16530022 0.14457065 -0.2136424
0.18890955 0.110561 0.058132235 0.2701137 0.2638346 0.2787984 -0.20227545 -0.21431085
-0.15733537 -0.008384502 -0.17778054 0.122260556 0.011865229 -0.15450194 0.27927485 -0.24686266
-0.21523964 0.01641387 -0.1958697 -0.13913348 -0.15673901 0.24217096 0.22891696 -0.1783615
-0.17437665 -0.052183934 -0.22627576 0.3181393 -0.034605294 -0.047808826 -0.1653363 0.2967593
0.115543015 -0.1977818 -0.114084 0.17456618 0.14467828 0.3455626 -0.18030807 -0.04497941
-0.17486836 0.19131409 -0.1358406 -0.14406659 0.2004184 -0.22356564 -0.1951981 -0.24464159
0.21294813 -0.17170362 -0.1997182 0.28004292 -0.2064838 0.12339844 -0.1559989 -0.17784768
-0.15179254 -0.030654352 0.09647785 0.10330789 0.19344804 0.15131722 -0.104029946 -0.098798774
0.001383312 0.13527307 -0.14735053 0.15771998 -0.17478883 0.32111603 -0.28807795 0.1596987
-0.053236924 -0.15942706 0.011717329 -0.093471944 0.07899366 -0.11355863 -0.1456525 0.23824483
-0.18688099 0.23409066 0.23796216 -0.04456675 -0.19068971 -0.21680823 0.19716226 0.13875298
0.22613056 0.31890252 -0.15924658 -0.028400898 -0.16687904 0.01905863 0.057212226 0.19135001
0.26108736 0.09075802 -0.15742981 -0.14809898 -0.1210264 0.07144654 0.2672835 0.101367995
-0.043329004 -0.20317745 -0.013100183 0.08697159 0.18584572 -0.14435379 -0.21004522 -0.1506578
0.0829473 0.20187658 0.30795607 -0.19205618 0.24568132 -0.18217225 -0.18025443 0.09914759
-0.007743685 0.06608083 -0.24059834 0.3813073 0.3775874 0.3027647 -0.112783425 0.21092454
-0.11245049 0.1947942 -0.32828316 -0.2955977 0.02758455 -0.16253562 -0.572645 0.21391174
00000000: e474 acbd eb74 39be a097 edbd e38a 6cbe
00000010: 2304 2cbe c79b 7f3e 8ea3 73be d998 363e
00000020: 2f4d cb3c 2bdd b6be 112d 923d 4a41 13be
00000030: 68f4 ed3b 4225 d6bd 7e23 623e 8f4c 0b3e
00000040: b96c 96be 16db dbbe ab1b 863e 0753 b53d
00000050: c21d 52be 845a 9ebe ba4f 0bbe a7a0 233e
00000060: ff0d 5d3d de11 c43e dea7 803e 200d 423e
00000070: e477 1f3e 407b a1be ae9d 753e f92d b43e
00000080: 8d93 0cbe ef14 923d 008f e6bd db72 273e
00000090: 9343 9f3e cb4e bcbe 6698 3a3e 60dd 5e3e
000000a0: ef74 313e d3fa 6abe 0f0f 093e 6ba2 29be
000000b0: 217c a73e bf1e 3f3e e00b 2b3e ed93 b43d
000000c0: 2d44 943e 155d 433e ec33 663d e928 2e3e
000000d0: 24b7 7c3e 08c7 cdbe bdb8 3abe 2f5f 443e
000000e0: c2f8 0e3e 3848 0b3e 3d2a 51be 6f37 39be
000000f0: d25e 5dbe ee7c 5dbe 973c 353e 4a20 1b3e
00000100: 279c 26be 7057 473e 918e 8e3d 1984 f1bd
00000110: 5d86 63be 6068 993e bfc7 b8bd d2ae abbd
00000120: 2338 cc3d 12c7 113e d8d4 393e cb2c 5f3d
00000130: dff4 c83d 618e 043e ec55 233e 4392 513d
00000140: 2a2d 77be d8fa 823d 52a3 a7be 6103 1b3e
00000150: fdd4 d2be 2e76 403e 0dae 3bbe f48c 67bd
00000160: 98e3 3f3e b986 503e 1e38 223e ff58 c9be
00000170: 1d55 113e 81bd 2bbd f08c bebd 5f4f dbbd
00000180: fd7c a6be 9007 1abe cf12 4e3e 728f 3a3e
00000190: bf95 a8be 4d41 66bd c2a9 53be f99d 0dbe
000001a0: 0a42 68be af20 213e 1cf5 6abe caad cabd
000001b0: 0ccd d23d 8944 263e 6c02 913e 5246 703e
000001c0: eab9 27be ccce 7fbe a354 d0be 0151 243e
000001d0: a97f 6abe 7644 293e 540a 143e 13c5 5abe
000001e0: 8171 413e ce6d e23d 111c 6e3d 584c 8a3e
000001f0: 5415 873e aabe 8e3e 4c21 4fbe 4e74 5bbe
00000200: 861c 21be 265f 09bc 1a0c 36be be63 fa3d
00000210: 6166 423c c235 1ebe 1dfd 8e3e 91c9 7cbe
00000220: c867 5cbe 6176 863c 1192 48be 0279 0ebe
00000230: 3180 20be aafb 773e 3569 6a3e 66a4 36be
00000240: cb8f 32be d2be 55bd d5b4 67be 28e3 a23e
00000250: 48be 0dbd 30d3 43bd eb4d 29be d6f0 973e
00000260: d1a1 ec3d 5087 4abe dfa4 e9bd 7ac1 323e
00000270: 8b26 143e 95ed b03e aea2 38be 543c 38bd
00000280: b110 33be d7e7 433e cc19 0bbe 3186 13be
00000290: 7b3a 4d3e 64ee 64be 03e2 47be 5383 7abe
000002a0: 130f 5a3e 13d3 2fbe ee82 4cbe c961 8f3e
000002b0: 7d70 53be 52b8 fc3d 2dbe 1fbe b41d 36be
000002c0: 816f 1bbe d61e fbbc 2e96 c53d 1693 d33d
000002d0: 3e17 463e e7f2 1a3e a70d d5bd 0357 cabd
000002e0: 4050 b53a 0685 0a3e 0fe3 16be 5981 213e
000002f0: d8fb 32be 5269 a43e f47e 93be 0e88 233e
00000300: f60e 5abd d940 23be 0afa 3f3c 386e bfbd
00000310: 6ec7 a13d 6d91 e8bd ee25 15be 74f6 733e
00000320: bb5d 3fbe 76b5 6f3e 5aac 733e a08b 36bd
00000330: 2a44 43be fa02 5ebe e7e4 493e 4315 0e3e
00000340: c58e 673e 3147 a33e 8911 23be 00a9 e8bc
00000350: 57e2 2abe d820 9c3c 5e57 6a3d 42f1 433e
00000360: 3ead 853e 57df b93d 4835 21be 42a7 17be
00000370: b0dc f7bd 9052 923d 62d9 883e 069a cf3d
00000380: c179 31bd c00d 50be 26a2 56bc 291e b23d
00000390: 574e 3e3e 7bd1 13be 1816 57be 0a46 1abe
000003a0: 46e0 a93d bcb8 4e3e 6bac 9d3e 60aa 44be
000003b0: e293 7b3e 5d8b 3abe 9e94 38be e40d cb3d
000003c0: bdbe fdbb 6355 873d 695f 76be b63a c33e
000003d0: 2353 c13e fa03 9b3e fffa e6bd 9afc 573e
000003e0: 714c e6bd 2178 473e bb14 a8be 9558 97be
000003f0: fff8 e13c bd6f 26be dd98 12bf ae0b 5b3e

fc2.bias f4 [10]
-0.113305815 0.102829486 -0.052178938 -0.20748857 0.063941896 0.1545444 -0.01010253 0.14904642
-0.18362229 0.022233032
00000000: e10c e8bd 4498 d23d 95b9 55bd e277 54be
00000010: f8f3 823d e340 1e3e 1585 25bc a09f 183e
00000020: 7b07 3cbe 0c22 b63c
