best_model_weights/challenge_loss.pth (torch, 383712 bytes, 4 tensors)

fc1.weight f4 [120, 784]
-0.14476621 0.14157546 -0.13892396 -0.1883193 0.14056647 -0.12940808 -0.14705269 0.11499856
0.13710782 -0.06335025 -0.11757099 -0.12692305 -0.13382307 0.14544643 0.2322894 0.01934272
-0.07022184 0.1077751 -0.13312843 -0.13028795 0.1284027 0.14300512 0.06914093 0.0007716995
-0.0030633223 0.050888326 0.12844178 -0.11195466 0.14782597 0.08626682 -0.080467254 0.12595779
0.16685773 -0.21711795 0.16654103 -0.0064607584 -0.20850356 -0.10790163 -0.11237317 -0.06642633
-0.07231966 0.11568665 -0.072903916 0.009826616 -0.23794076 -0.0151161775 -0.03073914 0.20429564
0.13097437 -0.17943919 -0.09107361 0.09854593 0.15246686 0.0933901 0.05951855 -0.08192368
-0.053225134 -0.14559837 -0.12121373 0.118521415 0.14929432 0.1644202 -0.08423659 -0.16861854
-0.120037556 -0.22871366 -0.013693336 0.13880433 0.016284544 0.036932074 0.032220732 -0.18714766
-0.080561295 -0.05856624 0.17907785 -0.04817172 0.1841274 -0.16960865 -0.12796812 0.08522125
-0.18288147 0.098319225 -0.02451887 -0.16979423 0.13900027 0.18875344 -0.19772024 -0.15896192
-0.12775421 0.0928757 -0.016965302 -0.1566697 -0.17591566 0.100088894 0.18218273 -0.116373934
-0.07185301 0.023633765 0.12842634 0.033037886 -0.016375197 -0.07200629 -0.18351334 -0.23616123
0.027195176 -0.014522288 -0.24921264 0.11612748 -0.19011079 -0.08588164 0.016605048 0.13238868
0.19701542 -0.053567268 0.015353986 -0.17555803 -0.0871816 0.19270866 0.034906525 0.0005217635
-0.03411154 0.16895916 0.06707775 0.26996297 -0.04198781 0.19098489 0.09965404 0.15996939
-0.040737383 0.07399702 0.038461942 -0.09696774 -0.208782 -0.12450567 -0.085487336 -0.2779935
-0.13289282 0.10540377 -0.10593115 -0.02812106 0.12797208 0.19191107 0.13221884 0.13688144
-0.22895938 -0.17378648 0.012272932 -0.13946353 -0.16705972 0.026858546 0.15254153 0.18954623
0.029216744 0.12016434 0.2947978 0.16246372 0.11287709 0.08099541 0.038591415 -0.035191175
-0.0015910331 -0.06444351 0.19663773 -0.021623207 -0.08604665 -0.17705102 0.15538049 0.07684285
0.14338253 0.12948816 0.027778942 0.100493856 0.1586413 0.01981895 0.1697323 0.29438886
0.13005525 0.11061807 0.13123816 0.074247934 -0.14785011 -0.13393685 0.17823896 -0.023800861
-0.048815243 0.020252345 -0.007359037 -0.039500974 -0.0316406 -0.12891364 -0.06482349 0.100649
-0.17497224 -0.14288498 -0.08200686 0.11543872 -0.17980872 -0.05683135 -0.14174901 -0.24510194
0.069582745 0.19281161 0.11785321 0.17270991 0.1854975 -0.025590206 0.07229567 0.12196968
0.00339287 0.08094035 0.12957671 -0.11388288 -0.11928919 -0.038994983 -0.06417225 0.025908792
0.00905286 -0.090568334 0.014123513 -0.010240619 -0.022460312 0.03479989 0.22534135 -0.12815109
0.10698675 -0.05373244 -0.1982129 0.06945675 0.26794243 -0.025124978 -0.08015655 0.010907549
0.0024625978 -0.037968665 0.17225355 0.0654126 -0.026555888 0.10869461 0.1037469 -0.06412868
0.031553425 0.014010806 0.07245006 -0.061961148 0.034078382 -0.17081207 0.0951804 0.078688934
0.11609509 0.011081585 -0.05539668 -0.16795331 -0.13584277 -0.0022618638 0.25738442 0.017537015
00000000: 983d 14be 28f9 103e 1542 0ebe c6d6 40be
00000010: a8f0 0f3e 8d83 04be fb94 16be 5d84 eb3d
00000020: fe65 0c3e c7bd 81bd 0fc9 f0bd 1ef8 01be
00000030: ea08 09be e9ef 143e 46dd 6d3e a074 9e3c
00000040: 78d0 8fbd 31b9 dc3d d252 08be 346a 05be
00000050: ff7b 033e ef6f 123e c399 8d3d e04b 4a3a
00000060: 05c2 48bb 4770 503d 3e86 033e 7c48 e5bd
00000070: b15f 173e a9ac b03d 04cc a4bd 14fb 003e
00000080: c1dc 2a3e 2b54 5ebe bb89 2a3e c5b4 d3bb
00000090: f581 55be 88fb dcbd e823 e6bd 870a 88bd
000000a0: 541c 94bd 1fed ec3d a64e 95bd d1ff 203c
000000b0: bea6 73be d8a9 77bc a6d0 fbbc e032 513e
000000c0: 251e 063e e8be 37be cd84 babd 73d2 c93d
000000d0: 4620 1c3e 4f43 bf3d b9c9 733d 9ac7 a7bd
000000e0: 9902 5abd bd17 15be e73e f8bd 5bbb f23d
000000f0: 9ce0 183e c55d 283e 3c84 acbd 57aa 2cbe
00000100: 40d6 f5bd ea33 6abe 045a 60bc b922 0e3e
00000110: 2a67 853c 1646 173d e3f9 033d a3a3 3fbe
00000120: 52fd a4bd 27e3 6fbd 2f60 373e b64f 45bd
00000130: e58b 3c3e e4ad 2dbe 130a 03be 7b88 ae3d
00000140: 4845 3bbe 975b c93d ccdb c8bc 8ade 2dbe
00000150: 1656 0e3e 9548 413e 2d77 4abe eac6 22be
00000160: 00d2 02be 9d35 be3d d1fa 8abc 066e 20be
00000170: 3c23 34be 68fb cc3d 1c8e 3a3e 7555 eebd
00000180: ac27 93bd 999b c13c 3282 033e bc52 073d
00000190: 4725 86bc 0978 93bd ecea 3bbe 40d4 71be
000001a0: 6bc8 de3c e4ee 6dbc 9931 7fbe 3fd4 ed3d
000001b0: 67ac 42be b7e2 afbd 4f07 883c e690 073e
000001c0: 69be 493e 5a69 5bbd 498f 7b3c 7cc5 33be
000001d0: 448c b2bd 6b55 453e 25fa 0e3d f5c6 083a
000001e0: 8bb8 0bbd a103 2d3e 0f60 893d 9638 8a3e
000001f0: 69fb 2bbd 8b91 433e 6b17 cc3d 04cf 233e
00000200: 3edc 26bd c08b 973d 458a 1d3d 0697 c6bd
00000210: f3ca 55be d4fc febd fc13 afbd 2a55 8ebe
00000220: 0e15 08be efdd d73d 6ef2 d8bd 235e e6bc
00000230: 1d0b 033e 5684 443e 6064 073e a62a 0c3e
00000240: 5474 6abe 15f5 31be 6814 493c 87cf 0ebe
00000250: b411 2bbe 7406 dc3c d933 1c3e 6818 423e
00000260: f457 ef3c b918 f63d bdef 963e e45c 263e
00000270: 1b2c e73d ece0 a53d 0812 1e3d 9f24 10bd
00000280: 368a d0ba f5fa 83bd 675b 493e 2723 b1bc
00000290: 3a39 b0bd dd4c 35be 101c 1f3e c95f 9d3d
000002a0: dfd2 123e 8b98 043e aa90 e33c b9cf cd3d
000002b0: dd72 223e 5a5b a23c 4ece 2d3e 23ba 963e
000002c0: 342d 053e ba8b e23d 4c63 063e 4d0f 983d
000002d0: 0566 17be be26 09be 4684 363e 06fa c2bc
000002e0: 7ef2 47bd 3fe8 a53c 1424 f1bb c6cb 21bd
000002f0: 9399 01bd f001 04be 2ec2 84bd 1021 ce3d
00000300: ec2b 33be 7150 12be 36f3 a7bd 236b ec3d
00000310: c71f 38be fdc7 68bd a726 11be 01fc 7abe
00000320: 6681 8e3d 6870 453e 065d f13d deda 303e
00000330: 0ef3 3d3e 8da2 d1bc c10f 943d 3dcb f93d
00000340: ea5a 5e3b 0ec4 a53d c2af 043e 6d3b e9bd
00000350: e44d f4bd 34b9 1fbd be6c 83bd ad3e d43c
00000360: 7252 143c e47b b9bd 4f66 673c 45c8 27bc
00000370: b0fe b7bc 548a 0e3d e2bf 663e 0a3a 03be
00000380: df1b db3d 8c16 5cbd 53f8 4abe 573f 8e3d
00000390: c02f 893e e6d2 cdbc 1e29 a4bd 94b5 323c
000003a0: 8963 213b 0885 1bbd 3c63 303e 0bf7 853d
000003b0: bc8b d9bc 489b de3d 4179 d43d e655 83bd
000003c0: 2a3e 013d 948d 653c b260 943d f9ca 7dbd
000003d0: c695 0b3d 5ce9 2ebe f1ed c23d aa27 a13d
000003e0: 43c3 ed3d 898f 353c a1e7 62bd f4fb 2bbe
000003f0: 5e1a 0bbe c73b 14bb e4c7 833e c9a9 8f3c

fc1.bias f4 [120]
-0.19032514 0.19537868 -0.05383189 0.34787253 0.3055995 0.22662508 -0.26134145 -0.27501118
-0.2619398 -0.18816778 -0.10047592 -0.18063356 0.0760154 -0.050143536 0.05415704 0.16494213
-0.11978613 0.14464544 0.102645025 -0.18646501 0.01630086 -0.1622268 -0.09984746 0.30428857
-0.0032159176 0.17101088 0.063986175 -0.15365404 -0.087137036 -0.2139614 -0.18251233 -0.10352352
0.24464458 0.20623782 -0.15368633 0.24624966 -0.19579883 -0.12308518 0.05121563 0.0982672
-0.105689436 -0.22658513 -0.18110657 0.0026647737 0.12996402 -0.045987003 0.19640768 0.27720582
-0.1700822 0.064277396 0.080713816 0.043634977 0.12218605 -0.012524289 0.045549173 -0.19075096
0.06442349 -0.15728232 -0.02202797 0.2125034 0.20479399 0.19773617 -0.03344621 -0.036646113
0.0067412485 0.0629404 0.07524436 -0.16541398 0.09358124 -0.18295063 -0.18448514 0.09163186
-0.18180783 0.026923107 0.14371754 -0.2119087 0.1649111 0.16538179 0.01942095 0.05333743
-0.16716987 0.016343452 -0.21558042 0.0078404 0.23503171 0.14982723 -0.22889787 0.28937304
0.14476426 0.089160286 0.17823307 -0.016990269 -0.18860836 -0.00040724906 0.1114342 -0.18949628
0.056858417 0.18768823 -0.018490035 -0.06235768 0.24416818 0.2083878 0.057795797 0.18010856
-0.14498639 0.00087696995 0.024167916 -0.21050142 0.16505358 0.11034406 0.10056716 0.30512214
-0.1153203 0.3309667 0.22233717 0.11012941 0.014609645 0.13996169 0.07471725 0.27360922
00000000: 98e4 42be 5911 483e d47e 5cbd 591c b23e
00000010: 8a77 9c3e 6810 683e 8cce 85be 44ce 8cbe
00000020: f91c 86be 0eaf 40be 52c6 cdbd 01f8 38be
00000030: f6ad 9b3d 4f63 4dbd c6d3 5d3d 97e6 283e
00000040: 6e52 f5bd ef1d 143e 8e37 d23d aff0 3ebe
00000050: 6289 853c c81e 26be d37c ccbd b6cb 9b3e
00000060: 25c2 52bb 7a1d 2f3e 2f0b 833d 7c57 1dbe
00000070: e774 b2bd b218 5bbe 83e4 3abe 2404 d4bd
00000080: 1c84 7a3e 0230 533e f35f 1dbe df28 7c3e
00000090: 7d7f 48be 1514 fcbd 7bc7 513d 5040 c93d
000000a0: b473 d8bd ef05 68be 0074 39be 7ca3 2e3b
000000b0: 4a15 053e de5c 3cbd 181f 493e eced 8d3e
000000c0: 072a 2ebe dea3 833d 494d a53d 97ba 323d
000000d0: ae3c fa3d ad32 4dbc c591 3a3d 3854 43be
000000e0: 76f0 833d 9e0e 21be 0074 b4bc 7e9a 593e
000000f0: 84b5 513e 5a7b 4a3e e5fe 08bd 3c1a 16bd
00000100: b1e5 dc3b e5e6 803d b719 9a3d 4862 29be
00000110: 85a7 bf3d 6957 3bbe ace9 3cbe 7ca9 bb3d
00000120: d52b 3abe d98d dc3c b12a 133e 98fe 58be
00000130: 75de 283e d859 293e af18 9f3c 5978 5a3d
00000140: 942e 2bbe b4e2 853c 1dc1 5cbe 0575 003c
00000150: 27ac 703e 4f6c 193e 3464 6abe b428 943e
00000160: 153d 143e ab99 b63d bb82 363e 2d2f 8bbc
00000170: 8d22 41be 0b84 d5b9 9d37 e43d 500b 42be
00000180: 5fe4 683d 5831 403e 6a78 97bc c46a 7fbd
00000190: 3907 7a3e 9d63 553e 49bb 6c3d 616e 383e
000001a0: 5077 14be 75e4 653a cbfb c53c af8d 57be
000001b0: ce03 293e 11fc e13d 28f6 cd3d f838 9c3e
000001c0: 0d2d ecbd 7874 a93e 5bac 633e 878b e13d
000001d0: 4b5d 6f3c 1e52 0f3e 5c05 993d 8216 8c3e

fc2.weight f4 [10, 120]
0.100617975 -0.2697817 -0.51368046 -0.43923926 0.42956197 0.28491303 0.32377243 0.30213958
0.3911424 -0.49447626 -0.0998397 0.2928898 -0.18396935 0.22083476 0.25795293 0.21206456
0.23461032 0.2096149 -0.072917864 0.25616673 0.28836468 0.15466936 -0.2101763 -0.18102664
-0.2689126 0.15803714 0.32686427 0.13930848 0.2191807 0.2253375 0.12942542 -0.03952853
-0.25861102 0.40233767 0.24176134 -0.22934854 0.4086717 -0.08322837 0.2047183 0.22158936
0.24547377 -0.23003207 0.29351985 0.04646404 -0.12230025 0.17772429 0.20093672 -0.22198036
0.17353866 0.24947195 -0.24859394 -0.15080915 0.13799395 0.29863176 -0.1939557 0.17201076
0.3498684 0.20795546 -0.16958672 -0.12755336 -0.175372 -0.24276823 0.18068694 0.14428642
-0.1588329 0.15561362 0.17294203 0.26607 0.22561058 -0.2932761 0.202279 -0.2641384
0.27326965 -0.18688688 0.20676316 0.25947076 -0.45565352 0.08295142 -0.5053041 -0.24209394
0.3080246 -0.39734605 0.15517928 -0.43425715 -0.2615223 -0.2486758 0.092772074 -0.25783128
-0.22615829 -0.25073397 -0.27123293 0.20476434 -0.16478303 -0.38666832 0.40831804 0.1175624
-0.24580689 -0.19924416 -0.028386487 0.13993521 -0.36280555 -0.27132538 -0.24776849 -0.3847698
0.18632577 0.21628074 -0.27489638 0.18768162 -0.33119306 -0.19302194 0.24535196 -0.23385763
0.38680196 -0.45166707 -0.15176685 -0.3228018 0.4850515 -0.5763205 0.16933104 -0.37123343
0.5219775 0.36758405 0.22792864 0.3332233 0.4293264 0.5036836 -0.24672672 -0.12089088
-0.13058273 0.09507269 0.12538587 -0.25975206 -0.36588135 -0.27885634 -0.31351447 -0.21729606
-0.27566063 -0.18003403 0.075617954 -0.24847038 0.3581161 -0.31110165 -0.35642785 -0.30517587
-0.14355499 -0.2471511 -0.21394514 -0.34109932 -0.34348115 -0.29719985 -0.37681553 0.09698417
0.18504426 0.53184736 -0.17536215 0.14508711 -0.3382358 -0.07995293 0.011891381 -0.13868377
-0.21794909 -0.31016788 -0.26998794 0.11540288 0.46228608 -0.14209628 -0.17023508 0.3123074
-0.27958515 -0.18936574 0.08736854 0.21752496 -0.17674786 -0.2546653 0.22782 -0.20273867
0.21644711 -0.29039136 -0.0930453 0.22096764 0.31229797 0.27598804 -0.06320269 0.2849506
0.24469149 -0.17891452 -0.09726171 -0.25981718 0.5110593 -0.0033720532 -0.100289814 0.27985573
-0.22886023 -0.21005201 -0.16122113 -0.17363252 0.44072884 0.39856762 0.14986937 0.22743072
-0.32198808 0.37217873 -0.19958849 0.20202485 0.32594424 0.20493595 0.032022066 0.2811287
0.22575928 0.2538451 0.24057077 0.31122908 -0.0711324 -0.3510251 0.29998356 -0.30189404
0.37876338 -0.24218135 0.06287783 -0.15638043 0.22305954 0.23308109 0.35907567 0.37232107
-0.10784377 -0.21481603 0.35417283 -0.30616206 0.13542226 0.22613356 0.25940144 0.2342426
-0.30306706 -0.22026837 0.17830765 0.2494114 0.33033597 0.2307463 -0.18168856 -0.17773964
0.63316023 -0.5034325 0.17663634 -0.36025622 -0.43400094 0.11928008 0.22890025 0.31364274
0.15556379 0.036734667 -0.24013747 -0.00938407 -0.20415819 -0.0069838506 -0.030720541 0.16034195
00000000: cc10 ce3d d420 8abe 9080 03bf f8e3 e0be
00000010: 8cef db3e 1fe0 913e 80c5 a53e 0ab2 9a3e
00000020: d143 c83e fe2b fdbe c278 ccbd a7f5 953e
00000030: 7662 3cbe 8222 623e 6812 843e 7427 593e
00000040: b03d 703e 4aa5 563e f655 95bd 4928 833e
00000050: 89a4 933e a561 1e3e 7538 57be 0c5f 39be
00000060: eaae 89be 7dd4 213e c15a a73e e2a6 0e3e
00000070: e870 603e e0be 663e 1988 043e abe8 21bd
00000080: aa68 84be 34ff cd3e 4990 773e 58da 6abe
00000090: 6b3d d13e a373 aabd ada1 513e 52e8 623e
000000a0: 7a5d 7b3e 878d 6bbe 3c48 963e 1451 3e3d
000000b0: 8e78 fabd 5bfd 353e 5bc2 4d3e d24e 63be
000000c0: 1eb4 313e 9375 7f3e 698f 7ebe b76d 1abe
000000d0: 494e 0d3e 43e6 983e 539c 46be 9723 303e
000000e0: f321 b33e 47f2 543e 24a8 2dbe 599d 02be
000000f0: b894 33be 3c98 78be ff05 393e d2bf 133e
00000100: 17a5 22be 2d59 1f3e b717 313e 543a 883e
00000110: 7606 673e 4928 96be 3a22 4f3e 263d 87be
00000120: 00ea 8b3e 465f 3fbe b9b9 533e 5ad9 843e
00000130: 6b4b e9be 6fe2 a93d 9c5b 01bf 79e7 77be
00000140: 66b5 9d3e f170 cbbe 51e7 1e3e f456 debe
00000150: 40e6 85be dea4 7ebe 49ff bd3d 7602 84be
00000160: 0a96 67be 3460 80be 0bdf 8abe bead 513e
00000170: e2bc 28be 64f9 c5be 100f d13e 8ec4 f03d
00000180: cdb4 7bbe a906 4cbe c78a e8bc 2d4b 0f3e
00000190: a6c1 b9be 29eb 8abe 06b7 7dbe 8c00 c5be
000001a0: 2fcc 3e3e b378 5d3e 38bf 8cbe 9c2f 403e
000001b0: 2392 a9be 8ba7 45be 8b3d 7b3e 6078 6fbe
000001c0: e80a c63e e840 e7be c568 1bbe 4746 a5be
000001d0: ac58 f83e be89 13bf 1e65 2d3e 4f12 bebe
000001e0: 51a0 053f fa33 bc3e 2066 693e 3f9c aa3e
000001f0: abd0 db3e 69f1 003f eea5 7cbe a395 f7bd
00000200: 7bb7 05be 78b5 c23d 2765 003e 39fe 84be
00000210: cd54 bbbe 42c6 8ebe f884 a0be dc82 5ebe
00000220: 6423 8dbe d75a 38be 96dd 9a3d 056f 7ebe
00000230: fe5a b73e b748 9fbe b67d b6be 0340 9cbe
00000240: 1400 13be 2e15 7dbe 6f14 5bbe 92a4 aebe
00000250: c3dc afbe 942a 98be f7ed c0be a39f c63d
00000260: 3e7c 3d3e 2627 083f 2392 33be b791 143e
00000270: 3e2d adbe 5dbe a3bd 11d4 423c 1e03 0ebe
00000280: 0c2e 5fbe 53ce 9ebe dc3b 8abe 5858 ec3d
00000290: c3b0 ec3e b081 11be 1b52 2ebe c1e6 9f3e
000002a0: c925 8fbe 18e9 41be 47ee b23d ddbe 5e3e
000002b0: 64fd 34be 7d63 82be a549 693e ba9a 4fbe
000002c0: 50a4 5d3e 2dae 94be 898e bebd 5745 623e
000002d0: 85e5 9f3e 4e4e 8d3e 6970 81bd 0ce5 913e
000002e0: 6890 7a3e 5e35 37be 2631 c7bd c206 85be
000002f0: c8d4 023f aafd 5cbb bf64 cdbd 4049 8f3e
00000300: 565a 6abe e017 57be 2717 25be b9cc 31be
00000310: 36a7 e13e 0e11 cc3e 5b77 193e 99e3 683e
00000320: 9fdb a4be 368e be3e ed60 4cbe 9adf 4e3e
00000330: 2ae2 a63e bbda 513e 9229 033d 1af0 8f3e
00000340: 712d 673e fcf7 813e 2f58 763e 6b59 9f3e
00000350: ddad 91bd 90b9 b3be 7297 993e db91 9abe
00000360: 46ed c13e 63fe 77be 17c6 803d 3122 20be
00000370: b869 643e cfac 6e3e c4d8 b73e dea0 be3e
00000380: 32dd dcbd bcf8 5bbe 2456 b53e 46c1 9cbe
00000390: 22ac 0a3e 8e8f 673e 44d0 843e 4bdd 6f3e
000003a0: 9b2b 9bbe 088e 61be 4896 363e b465 7f3e
000003b0: cc21 a93e c248 6c3e 910c 3abe 6101 36be
000003c0: ca16 223f f4e0 00bf 28e0 343e 8173 b8be
000003d0: 5f35 debe 1d49 f43d d464 6a3e c895 a03e
000003e0: 1d4c 1f3e 1777 163d 99e6 75be a4bf 19bc
000003f0: d80e 51be c9d8 e4bb a5a9 fbbc ae30 243e

fc2.bias f4 [10]
-0.24284439 0.12613562 -0.022193812 -0.14198428 0.067359544 0.018091565 -0.10897847 0.16007431
-0.22620836 0.057357434
00000000: 33ac 78be b229 013e cccf b5bc 5464 11be
00000010: cdf3 893d c334 943c 1b30 dfbd 85ea 233e
00000020: 2aa3 67be a1ef 6a3d
