best_model_weights/challenge_loss.pth (torch, 32980 bytes, 2 tensors)

fc.weight f4 [10, 784]
000000 88 37 0f be 8e b5 0a be 64 0e bc bd d1 77 11 be
       -0.13986027 -0.1354582 -0.09182432 -0.14205863
000010 b7 e5 ff bd a8 41 0c 3e fd c5 07 3e 77 cd d8 3d
       -0.124949865 0.13696921 0.1325912 0.10586064
000020 48 1d 0a be 0d c1 08 3e ac 02 14 3e f7 c5 cf 3d
       -0.13487732 0.13354893 0.14454144 0.10145181
000030 9e ad 7e 3d f6 cd e4 3d 71 c2 b4 3d 1e 29 8f 3d
       0.062177293 0.111720964 0.08826149 0.06990264
000040 82 7c 2a be 17 37 a5 bd f0 c6 d8 3d 29 b1 0f be
       -0.16649058 -0.08067148 0.10584819 -0.14032425
000050 12 cf 00 3e d8 4a 04 3e cb d7 cc 3d b2 9f f7 3d
       0.12578991 0.12919176 0.10002097 0.12091006
000060 7b 79 1b 3e a6 ce cb bd b4 cc ea 3d cc ca 93 bd
       0.1518306 -0.099515244 0.11464825 -0.07216415
000070 27 b5 07 be 6a a9 fc 3d 1a 44 05 be 6d 55 d7 bd
       -0.13252698 0.12337001 -0.1301426 -0.105143405
000080 10 86 05 be 4c ff cb 3d 8f b1 0e 3d 07 7a 2b be
       -0.13039422 0.099608034 0.0348373 -0.16745768
000090 04 52 d4 3d 3e 09 d6 3d 83 c4 48 be 93 32 f9 bd
       0.10367206 0.104509816 -0.19606213 -0.121678494
0000a0 de 8e 2b be 4a fb 00 be eb 6a 0f be ca 3c 1e be
       -0.16753718 -0.12595859 -0.1400563 -0.15452877
0000b0 b5 e4 dc bd a9 77 0d be 34 94 1c 3e 77 00 c1 3d
       -0.1078581 -0.13815178 0.1529091 0.09423917
0000c0 82 85 e5 bd b0 ab f4 bd f4 46 17 be bb ef 08 3e
       -0.11207105 -0.11946809 -0.1477316 0.133727
0000d0 58 8a 04 3e 0a d6 f0 bd 07 2a b8 3d 0e 50 16 3e
       0.12943399 -0.11759575 0.08992391 0.14678976
0000e0 51 f9 e3 3d a4 71 19 be 6f 2a 07 be f7 10 0f 3e
       0.11131538 -0.14984757 -0.13199781 0.13971315
0000f0 89 35 fb bd 00 22 fb 3d 99 b5 c3 3d 8c 38 82 3d
       -0.122660704 0.12262344 0.095561214 0.06358442
000100 b4 13 2d be d1 9b 4b be cb 93 36 be 37 b7 1b be
       -0.16902047 -0.19883658 -0.17829816 -0.1520661
000110 70 ad 8a be 71 84 47 be d7 ea ea 3d 9a b3 90 bd
       -0.27085447 -0.19484116 0.114705734 -0.07065506
000120 d3 94 2b be ed cd 33 be df 8f ef bd 20 9f 01 be
       -0.1675599 -0.17559023 -0.11697363 -0.12658358
000130 25 31 4c be 61 9c 06 be fe 87 62 3d ba 20 09 be
       -0.19940622 -0.13145591 0.055305474 -0.1339139
000140 5e 5d 1c 3e 25 e5 17 be 69 0f f0 bd 11 1c f0 3d
       0.15269992 -0.14833505 -0.11721689 0.11724103
000150 30 61 1d 3e 37 73 fe 3d 44 03 ff bd c3 85 03 be
       0.15369105 0.12424319 -0.12451795 -0.12843995
000160 b1 d0 1b be 05 0d b8 bd ce 86 55 be 44 79 e7 bd
       -0.15216328 -0.08986858 -0.20852205 -0.113024265
000170 0d f1 15 be fc 15 e8 bc 98 e9 13 3d a8 8b 27 bd
       -0.14642735 -0.028330795 0.036111444 -0.04090467
000180 22 55 a2 bd 1a 0a 26 3b 2d ff b8 3d ac 8b 0d 3c
       -0.07926394 0.002533561 0.09033046 0.008639257
000190 51 93 66 3d 53 c8 fe 3c a8 ab 1c 3d 90 1c 64 be
       0.056292836 0.031101381 0.03824964 -0.2227652
0001a0 ac 99 37 be 37 62 52 be 4b 56 17 be 39 d0 03 3e
       -0.17929715 -0.20545278 -0.14779012 0.128724
0001b0 a4 83 b4 bd 28 a3 f6 bd ed 0a d7 3d a6 b8 c9 bd
       -0.08814171 -0.12042838 0.10500131 -0.09849672
0001c0 f2 30 09 be b3 f5 14 be 06 75 e7 3d 63 c2 9e 3d
       -0.13397577 -0.14546852 0.11301617 0.0775192
0001d0 a0 03 cf bd 4a b0 84 be 4b dc 95 be a9 ae d8 3c
       -0.10108113 -0.25915748 -0.29269633 0.026450472
0001e0 8d 1b ca bd 54 c8 16 bd 89 b0 05 3e 3f 38 1b 3e
       -0.09868536 -0.03681214 0.13055624 0.15158175
0001f0 ad 58 45 3e 73 99 90 bb 7a 47 31 3d 2b be 34 3d
       0.19272108 -0.004412824 0.043281056 0.04412667
000200 73 13 39 3e 34 59 18 3e fc 4b 27 bd c8 08 52 be
       0.18073826 0.14877778 -0.04084395 -0.20511162
000210 4f 99 55 bc 71 86 00 be e3 a9 1d be a1 f1 d5 3d
       -0.01303704 -0.12551285 -0.15396838 0.10446478
000220 63 58 04 3e e1 c7 11 3e 11 cb d9 3d 46 33 f7 bd
       0.12924342 0.14236404 0.10634435 -0.120703265
000230 79 77 24 3d 0d 0d 11 be fd 45 f0 bd ff 94 16 3d
       0.040153 -0.14165135 -0.11732099 0.036763187
000240 c0 7f 59 be de 6d 87 be 8b 44 05 bd 63 42 45 3b
       -0.21240139 -0.2645101 -0.03253607 0.0030099384
000250 4f 92 86 3d 9b b8 16 3e 84 d5 48 3d 9e e6 30 3e
       0.06570875 0.14718859 0.04903175 0.17275473
000260 27 88 21 3e 9c f3 f5 3d ff 47 ba 3d de 8f e5 3d
       0.15774594 0.120093554 0.090957634 0.11209081
000270 b2 61 1f 3e 00 bc 3f 3e 80 61 4e 3e 63 97 a9 3d
       0.15564612 0.1872406 0.20154381 0.08280828
000280 2c d8 5b 3d b8 8e 5f be 1e 02 0b be a4 ad 7f be
       0.053672954 -0.21831787 -0.13575026 -0.24968582
000290 77 a4 f1 3d fd 5a 0c be 32 0a 65 bd b0 c3 0e be
       0.11798947 -0.13706584 -0.055917926 -0.13941836
0002a0 fb 18 1a be b4 d8 12 be c8 b9 2f be 9c f6 38 be
       -0.15048592 -0.14340478 -0.17160714 -0.18062824
0002b0 d9 6e 71 be 1e ea 4a be ca ad 7c 3d 40 a4 22 3e
       -0.23577441 -0.19815871 0.061689176 0.15882969
0002c0 35 95 1a 3e c9 d1 9c 3d 31 6c 97 3d d3 f2 be 3d
       0.1509598 0.07657201 0.07393683 0.09323659
0002d0 d2 e6 c0 3d 0a 35 7f 3d 31 d5 92 3d 96 46 ec 3d
       0.094190255 0.06230644 0.07169569 0.11536901
0002e0 7a 41 27 3e 3b 53 08 3e c9 ee 2e 3e 65 e0 d0 3b
       0.16333571 0.13313 0.17083277 0.006374406
0002f0 88 81 23 3e a0 a6 d8 bc 3b 80 a1 3a 17 23 11 be
       0.15967381 -0.02644664 0.0012321541 -0.14173542
000300 d2 87 e7 bd c3 79 e6 3c 9e fa 03 3e 0b 9f 0b be
       -0.113052025 0.028134232 0.12888572 -0.13634889
000310 0c 61 ca 3d 5e 4c 29 3d a9 58 d6 bd 29 07 5e be
       0.098817915 0.041332595 -0.10466129 -0.21682419
000320 b5 d0 2a be d5 1c c0 3c 83 a2 4d 3e 40 10 42 3e
       -0.16681178 0.023451248 0.20081525 0.18951511
000330 c0 44 e1 3b 59 99 ea 3d 2e d7 c3 3d f2 11 96 3d
       0.0068746507 0.1145503 0.09562527 0.073276415
000340 f9 c4 b4 3c fb d4 fb bc 98 66 c9 3d cd 4c 93 3d
       0.02206658 -0.030741205 0.09834021 0.07192383
000350 84 9f 71 3d 82 89 dd 3d 87 09 d7 3d ee 27 a5 3d
       0.058990017 0.10817243 0.10499864 0.080642566
000360 58 2d 1a 3e 45 94 57 3e 9b 38 ce bd 9e f2 1a bc
       0.1505636 0.21052654 -0.100693904 -0.0094572585
000370 57 06 0a be 77 1d 16 be d9 6c 18 be de b1 e4 3d
       -0.13478981 -0.14659677 -0.14885272 0.11166738
000380 d6 ee 16 be 03 f7 2d be 76 40 44 be 79 52 e8 bd
       -0.14739546 -0.16988759 -0.19165215 -0.113438554
000390 ca 65 11 bd 27 03 27 3e 0b 54 39 3e 7e 88 ce 3d
       -0.035497464 0.16309796 0.18098466 0.100846276
0003a0 54 47 0d 3e 09 6f b2 3d c8 1f d5 3b 04 40 a7 3d
       0.13796741 0.087125845 0.0065040328 0.08166507
0003b0 ef d1 84 3d 3c d5 5b bd fb 6f 0f 3e 1c 64 42 3d
       0.06485354 -0.053670153 0.14007561 0.047458753
0003c0 cb e5 13 bb 0e 0a 36 bc 53 26 84 3d e7 25 c1 3d
       -0.0022567387 -0.011110796 0.06452622 0.094310574
0003d0 3a 04 1d 3e 56 a7 a1 3d 86 c8 1e 3d 60 4c e2 bc
       0.15333644 0.07893245 0.038765453 -0.027624309
0003e0 07 8b ba bd 05 7d 4e be 55 02 24 3d fd fa bb 3d
       -0.091085486 -0.20164879 0.040041286 0.091787316
0003f0 43 7f 72 3d 9b 3d 1c be 98 06 50 be 59 7d 8b bd
       0.059203397 -0.15257876 -0.20315015 -0.068110175

fc.bias f4 [10]
000000 54 5b 30 bf bc dc 4c 3f f3 cc 1a bf 4c dd 04 bf
       -0.68889356 0.80024314 -0.6046898 -0.5190017
000010 e3 73 0a bf 36 db 1f 3e bf a5 69 bf c9 f0 2f 3f
       -0.5408308 0.15610966 -0.91268533 0.68726784
000020 61 2e 6e bf 2b 34 3a bf
       -0.9303952 -0.7273585
