best_model_weights/cross_entropy_loss.pth (torch, 32980 bytes, 2 tensors)

fc.weight f4 [10, 784]
0.026544662 0.008300458 -0.0011138278 0.029935025 0.0063710217 0.009750435 0.034768827 -0.08861496
-0.18126549 -0.22041616 -0.6044828 0.9079 -0.6371321 -0.39915884 -0.5222473 -0.55677783
-0.48564333 -0.6252038 -0.4227785 -0.48443806 -0.07278425 0.024354275 -0.032302137 0.032906484
0.008961733 -0.017418917 -0.022228362 0.006212703 -0.026386645 0.032678604 -0.00913764 -0.010870504
-0.050784115 -0.101113476 -0.6344524 -0.57217425 -0.47084612 -0.5480296 -0.64601904 0.56092
-0.6765993 -0.035054687 -0.5028777 -0.5322097 -0.44693133 0.19163537 0.99759656 0.8165161
-0.67549795 -0.3217545 -0.18542826 -0.035504125 0.024079008 -3.4187524e-05 -0.023126284 -0.009248355
-0.019046167 -0.0054524373 0.010910524 0.008981097 -0.09178669 -0.30767456 1.0715121 0.8016771
-0.45198512 -0.5393213 -0.42321932 0.21771295 -0.3669656 -0.2780886 0.7395603 -0.54786116
-0.45442116 -0.5926924 -0.5185475 -0.5064513 -0.617924 -0.30744657 -0.41717845 -0.045177072
0.0028514566 0.02380429 0.031045157 0.017578406 0.012539174 -0.019787347 -0.012358488 -0.0009141437
-0.21861406 -0.63399553 -0.023340054 -0.5060655 -0.18376811 0.28589803 0.4639104 -0.0019425384
-0.35907966 0.30303288 0.07088395 0.08968017 0.27705348 0.10343028 -0.058536913 -0.25838727
0.22895035 -0.26493073 -0.6310185 -0.49237415 0.0030578377 0.01259614 -0.013849625 0.00959975
-0.013686325 -0.19832222 -0.42792055 -0.3255512 -0.3734688 -0.44536 -0.37978467 -0.33588767
0.11620359 0.26072475 0.3331063 0.2710971 0.29510352 0.04709144 0.060227584 0.20777002
0.26112878 0.035153605 0.16066456 0.0041984837 -0.11631083 -0.34252232 0.12161641 -0.36223847
-0.54249936 -0.34966764 -0.029014116 0.019958293 0.0066282027 -0.034335807 -0.5481677 -0.3382979
-0.45447522 0.02963058 0.016307358 -0.010448155 0.14539045 0.2583133 -0.034458674 0.13722754
0.1478488 0.18999806 0.06982899 0.10418518 0.009783355 0.11881094 0.2378038 0.083053134
-0.12245709 0.008690892 -0.2759153 -0.61974376 -0.6547602 -0.22363794 -0.015623604 -0.013431464
0.010514171 -0.113773465 -0.6251884 -0.46575087 -0.49609137 -0.5252947 0.09348764 0.22704251
0.26247805 0.060710404 0.0602737 0.010478826 0.092269056 0.1305529 0.054582167 0.16174474
0.16994709 0.07442317 0.24348511 -0.025520395 0.09946229 -0.2936706 0.6022013 -0.014204494
-0.527948 -0.46370718 -0.3735638 -0.06724952 -0.018020397 -0.35890016 -0.43589136 -0.49903393
-0.2893699 -0.057651002 0.2086578 0.1191537 0.038014747 0.12993273 0.17058647 0.106912576
0.076305136 0.016674533 0.26471144 0.070667684 -0.12319687 0.20971027 0.17545596 0.08798382
0.1437119 0.37999716 0.015107604 -0.24899577 -0.48945197 -0.5958884 -0.3454068 -0.30948803
-0.23912393 -0.60059804 -0.55319107 -0.19286312 -0.114855155 0.030827051 0.16554339 0.09740404
0.1285229 0.16043937 0.058352817 0.28364602 -0.0006669393 -0.022695007 0.2451609 -0.0013826373
-0.16058172 0.00047162286 0.26011476 0.04879919 0.08420629 0.14017333 0.15765455 0.32054764
0.019850511 -0.59344834 -0.4131891 -0.3058983 -0.24895473 -0.18243717 -0.33995333 -0.061118513
00000000: 3174 d93c a5fe 073c dcfd 91ba 4c3a f53c
00000010: 01c4 d03b 4ac0 1f3c c269 0e3d c37b b5bd
00000020: a99d 39be c6b4 61be 63bf 1abf 226c 683f
00000030: 171b 23bf 8c5e ccbe 00b2 05bf fe88 0ebf
00000040: 3ea6 f8be 5b0d 20bf 6c76 d8be 4408 f8be
00000050: e90f 95bd 9e82 c73c 3f4f 04bd f3c8 063d
00000060: 3cd4 123c 1eb2 8ebc 4118 b6bc ee93 cb3b
00000070: ce28 d8bc 00da 053d 0ab6 15bc 331a 32bc
00000080: 0103 50bd 9514 cfbd 796b 22bf 037a 12bf
00000090: be12 f1be ab4b 0cbf 8161 25bf 7498 0f3f
000000a0: 9d35 2dbf 8195 0fbd 98bc 00bf e53e 08bf
000000b0: 2fd4 e4be 103c 443e 7d62 7f3f 3307 513f
000000c0: 6fed 2cbf 01bd a4be e8e0 3dbe c66c 11bd
000000d0: 5741 c53c 9364 0fb8 5573 bdbc 6a86 17bc
000000e0: b506 9cbc 5caa b2bb 0ec2 323c 7325 133c
000000f0: a9fa bbbd 8587 9dbe 4f27 893f b63a 4d3f
00000100: 986a e7be f610 0abf 34b0 d8be 25f0 5e3e
00000110: eae2 bbbe a161 8ebe d353 3d3f a140 0cbf
00000120: e4a9 e8be b0ba 17bf 87bf 04bf cba6 01bf
00000130: 4430 1ebf a369 9dbe 6a98 d5be 980b 39bd
00000140: 81df 3a3b 3701 c33c 6a52 fe3c 9700 903c
00000150: 1c71 4d3c 1319 a2bc 417b 4abc 25a3 6fba
00000160: 5ddc 5fbe 884d 22bf a433 bfbc 828d 01bf
00000170: b52d 3cbe 3a61 923e aa85 ed3e c69c feba
00000180: 4ad9 b7be 2027 9b3e 9b2b 913d 3daa b73d
00000190: f4d9 8d3e 41d3 d33d 67c4 6fbd 564b 84be
000001a0: f671 6a3e 00a5 87be 6e8a 21bf 7718 fcbe
000001b0: 0166 483b 0a60 4e3c 8ae9 62bc 4548 1d3c
000001c0: 9c3c 60bc fb14 4bbe 6718 dbbe a6ae a6be
000001d0: 4d37 bfbe 3a06 e4be 2373 c2be 78f9 abbe
000001e0: 26fc ed3d b77d 853e e98c aa3e 3dcd 8a3e
000001f0: cf17 973e f4e2 403d 33b1 763d aac1 543e
00000200: acb2 853e 3afd 0f3d 4085 243e 6f93 893b
00000210: 5f34 eebd 165f afbe 0612 f93d 5277 b9be
00000220: 3de1 0abf a307 b3be 03af edbc 937f a33c
00000230: 6531 d93b b4a3 0cbd b854 0cbf 6235 adbe
00000240: fab0 e8be d5bb f23c 0297 853c bd2e 2bbc
00000250: 3ce1 143e a441 843e 8a24 0dbd 6085 0c3e
00000260: ad65 173e da8e 423e 8002 8f3d 0a5f d53d
00000270: 5d4a 203c 2653 f33d d782 733e c317 aa3d
00000280: c8ca fabd 3e64 0e3c c544 8dbe 87a7 1ebf
00000290: 5d9e 27bf 5801 65be 25fa 7fbc a50f 5cbc
000002a0: a143 2c3c 1002 e9bd 590c 20bf e676 eebe
000002b0: b0ff fdbe b779 06bf 7376 bf3d d57d 683e
000002c0: 8663 863e 79ab 783d 8ee1 763d 62af 2b3c
000002d0: 8ff7 bc3d a9af 053e 8d91 5f3d 6aa0 253e
000002e0: 9c06 2e3e 2d6b 983d 2954 793e 2610 d1bc
000002f0: e3b2 cb3d fe5b 96be dd29 1a3f f7b9 68bc
00000300: 9a27 07bf 076b edbe c143 bfbe 1eba 89bd
00000310: 839f 93bc c3c1 b7be 272d dfbe 6081 ffbe
00000320: 4b28 94be 7523 6cbd 64aa 553e db06 f43d
00000330: 5ab5 1b3d 160d 053e 38ae 2e3e fbf4 da3d
00000340: de45 9c3d 0899 883c 4288 873e 38ba 903d
00000350: a44e fcbd 4abe 563e baaa 333e dc30 b43d
00000360: 3629 133e fd8e c23e e285 773c bff8 7ebe
00000370: 7399 fabe 248c 18bf 29d9 b0be 3775 9ebe
00000380: e7dc 74be cbc0 19bf ee9d 0dbf e97d 45be
00000390: 2e39 ebbd 0389 fc3c 3584 293e c57b c73d
000003a0: 829b 033e 384a 243e 5d03 6f3d 0d3a 913e
000003b0: 8ad5 2eba e1ea b9bc 750b 7b3e 9c39 b5ba
000003c0: 896f 24be 2644 f739 c32d 853e a9e1 473d
000003d0: 5974 ac3d 9989 0f3e 3270 213e d21e a43e
000003e0: 8a9d a23c 3bec 17bf 868d d3be b49e 9cbe
000003f0: fded 7ebe cfd0 3abe 5d0e aebe 6857 7abd

fc.bias f4 [10]
-0.5316571 0.6112752 -0.23650903 -0.36815208 -0.20357129 0.80887073 -0.756829 0.5965532
-0.8750844 -0.104209386
00000000: ae1a 08bf 887c 1c3f 6c2f 72be 6e7e bcbe
00000010: fe74 50be 2712 4f3f 8cbf 41bf b6b7 183f
00000020: 8805 60bf bb6b d5bd
