best_model_weights/symmetry_loss.pth (torch, 32980 bytes, 2 tensors)

fc.weight f4 [10, 784]
-0.022739168 0.0014711875 0.0009805731 -0.0030269965 -0.021795662 -0.010565584 -0.020750843 -0.15854885
-0.18536963 -0.222468 -0.5636241 0.61361927 -0.51461285 -0.43274337 -0.54231894 -0.5061265
-0.47556233 -0.6079992 -0.30592218 -0.24681991 -0.061829306 -0.014214806 -0.006735389 0.021389915
0.024875583 0.017998135 0.018042374 0.03215635 0.027062545 -0.027395245 -0.026712699 -0.008283267
-0.12436348 -0.09881096 -0.6760545 -0.51699346 -0.41862202 -0.45224905 -0.5206044 0.36312523
-0.57899135 -0.04875802 -0.49460256 -0.43086535 -0.4146271 0.11055337 0.9055251 0.66627365
-0.5987385 -0.2704586 -0.19308682 0.01145709 0.017403241 0.0071864687 0.012703326 0.020148445
-0.019382095 0.0296408 0.034603342 -0.03148698 -0.07512074 -0.31227392 1.1308995 0.6585432
-0.39470923 -0.42499143 -0.3488204 0.23849332 -0.29633942 -0.24883132 0.7345771 -0.54651093
-0.44791138 -0.5060204 -0.52071124 -0.4849973 -0.5553401 -0.28463277 -0.33789748 -0.09853179
0.011594739 0.0044094836 0.014572549 0.0070417356 -0.02827523 0.017472804 -0.0031032267 0.035612818
-0.17947227 -0.60569435 -0.04249771 -0.46620083 -0.21500199 0.097705364 0.5723672 -0.015805647
-0.48537627 0.38561815 0.057518147 0.107439466 0.35619193 0.059213277 -0.08004517 -0.26379225
0.16958725 -0.20599636 -0.6051156 -0.43605992 0.016982194 -0.033987775 -0.011611918 -0.024068033
-0.03144458 -0.15920725 -0.36568442 -0.28513426 -0.36303687 -0.44271842 -0.38140255 -0.2758284
0.10680312 0.3247118 0.4004279 0.320621 0.35905802 -0.00174005 0.05651197 0.17661701
0.23085895 0.0023408877 0.15684728 0.0038937174 -0.0741797 -0.25944608 0.10781483 -0.34553102
-0.51971805 -0.379358 0.005244332 -0.031673208 0.02740041 -0.018077333 -0.5667809 -0.3166052
-0.43591976 0.028084433 -0.11215428 0.01714143 0.1244269 0.3151949 -0.07278627 0.14094867
0.1303778 0.20984323 0.059242923 0.107969366 0.015245019 0.09321943 0.23006675 0.12763079
-0.16966237 0.066342674 -0.25228885 -0.56894547 -0.6498583 -0.24723198 0.024559315 -0.030208265
0.0003890225 -0.112082906 -0.6528939 -0.42457166 -0.4590723 -0.45739853 0.10435807 0.2940867
0.26535037 0.12187107 0.019317701 0.029390179 0.108742125 0.09455425 0.0803094 0.14786889
0.19523571 0.08722209 0.28208864 -0.06607718 0.13068634 -0.37000987 0.70062256 0.0024034102
-0.52747905 -0.45590922 -0.37997183 -0.05263304 0.014841859 -0.378167 -0.48617133 -0.53876954
-0.26453584 -0.15917017 0.2277244 0.08389096 0.02651559 0.12043139 0.14146914 0.12543999
0.08037959 0.052966252 0.2775261 0.037162904 -0.067871004 0.21013063 0.13538921 0.09421364
0.1725015 0.34899783 -0.023485983 -0.24275248 -0.4593271 -0.6091477 -0.33150995 -0.2661818
-0.27941647 -0.62723196 -0.5819773 -0.15289035 -0.14772657 -0.067678936 0.23068689 0.09070649
0.12321211 0.16890007 0.038456388 0.34683985 -0.025122076 -0.044257853 0.32628137 0.025977239
-0.19398229 0.018582094 0.23748103 0.013257178 0.051256977 0.110339686 0.1686996 0.34579635
0.050773215 -0.61766845 -0.43988538 -0.25902697 -0.2716426 -0.17325051 -0.3702652 -0.062350366
00000000: 7e47 babc dcd4 c03a 9386 803a 9360 46bb
00000010: d18c b2bc 451b 2dbc acfd a9bc a15a 22be
00000020: 89d1 3dbe a7ce 63be ab49 10bf 2716 1d3f
00000030: abbd 03bf 8a90 ddbe 6ad5 0abf 8291 01bf
00000040: e87c f3be d6a5 1bbf d5a1 9cbe 5cbe 7cbe
00000050: ba40 7dbd 38e5 68bc 8ab4 dcbb e739 af3c
00000060: e1c7 cb3c d370 933c 9acd 933c 60b6 033d
00000070: 45b2 dd3c fe6b e0bc 97d4 dabc 8ab6 07bc
00000080: 48b2 febd 675d cabd e811 2dbf af59 04bf
00000090: a055 d6be 308d e7be 5446 05bf 8deb b93e
000000a0: c738 14bf 7db6 47bd 8c3c fdbe 629a dcbe
000000b0: 014a d4be ce69 e23d 7ed0 673f e990 2a3f
000000c0: ed46 19bf 8d79 8abe 8db8 45be 85b6 3b3c
000000d0: 3e91 8e3c 787c eb3b 9c21 503c 5a0e a53c
000000e0: 33c7 9ebc 43d1 f23c 3cbc 0d3d 7ef8 00bd
000000f0: e7d8 99bd 5ee2 9fbe 51c1 903f 4a96 283f
00000100: 5417 cabe 7a98 d9be 9698 b2be 9837 743e
00000110: cdb9 97be a3cd 7ebe 3f0d 3c3f 24e8 0bbf
00000120: a454 e5be 8e8a 01bf 554d 05bf 9151 f8be
00000130: c52a 0ebf 63bb 91be e600 adbe 09cb c9bd
00000140: dcf7 3d3c 6e7d 903b b3c1 6e3c 5cbe e63b
00000150: 75a1 e7bc 2023 8f3c 815f 4bbb bfde 113d
00000160: 94c7 37be c90e 1bbf 1412 2ebd e0b1 eebe
00000170: 7b29 5cbe c019 c83d a886 123f d87a 81bc
00000180: 3d83 f8be be6f c53e 2698 6b3d 3909 dc3d
00000190: ca5e b63e 9f89 723d b9ee a3bd c70f 87be
000001a0: 48a8 2d3e b6f0 52be dbe8 1abf 3f43 dfbe
000001b0: 3e1e 8b3c c436 0bbd ea3f 3ebc 532a c5bc
000001c0: 08cc 00bd 3a07 23be fd3a bbbe 1efd 91be
000001d0: f8df b9be fdab e2be 3247 c3be 6139 8dbe
000001e0: 98bb da3d a040 a63e e304 cd3e 7028 a43e
000001f0: 74d6 b73e 6412 e4ba 1879 673d 17db 343e
00000200: 4a66 6c3e 9469 193b 939c 203e bd2d 7f3b
00000210: 87eb 97bd 1ed6 84be 06ce dc3d 71e9 b0be
00000220: 3e0c 05bf 363b c2be a5d8 ab3b c4bb 01bd
00000230: d376 e03c ea16 94bc 8e18 11bf 141a a2be
00000240: e030 dfbe 5311 e63c 25b1 e5bd 2f6c 8c3c
00000250: 88d3 fe3d 3a61 a13e f810 95bd d954 103e
00000260: c281 053e 25e1 563e b5a8 723d 0b1f dd3d
00000270: 3fc6 793c d4e9 be3d 9e96 6b3e a5b1 023e
00000280: f9bb 2dbe abde 873d 012c 81be 69a6 11bf
00000290: 1d5d 26bf 612a 7dbe 9e30 c93c 5377 f7bc
000002a0: b7f5 cb39 b98b e5bd 0e24 27bf 7561 d9be
000002b0: 860b ebbe 2430 eabe afb9 d53d 8892 963e
000002c0: 01dc 873e 8a97 f93d 2840 9e3c acc3 f03c
000002d0: 31b4 de3d a9a5 c13d 4179 a43d f16a 173e
000002e0: dfeb 473e 7fa1 b23d ec6d 903e 7953 87bd
000002f0: a4d2 053e ef71 bdbe 005c 333f 8882 1d3b
00000300: de08 07bf ef6c e9be ab8b c2be be95 57bd
00000310: 452b 733c 1b9f c1be 73eb f8be cdec 09bf
00000320: 3e71 87be 81fd 22be 9630 693e 06cf ab3d
00000330: 3937 d93c bca4 f63d 49dd 103e 5773 003e
00000340: 0e9e a43d 24f3 583d e717 8e3e 2138 183d
00000350: f4ff 8abd 7c2c 573e 78a3 0a3e 15f3 c03d
00000360: 3ca4 303e d8af b23e ad65 c0bc 1b94 78be
00000370: ec2c ebbe 1bf1 1bbf acbb a9be fb48 88be
00000380: ad0f 8fbe 4692 20bf 77fc 14bf 4a8f 1cbe
00000390: a245 17be 419b 8abd 2f39 6c3e 53c4 b93d
000003a0: a156 fc3d 24f4 2c3e 7284 1d3d fe94 b13e
000003b0: d0cc cdbc b947 35bd 5a0e a73e 38ce d43c
000003c0: 4ba3 46be 7a39 983c 3a2e 733e a234 593c
000003d0: d6f2 513d c6f9 e13d 97bf 2c3e 380c b13e
000003e0: 93f7 4f3d 851f 1ebf a838 e1be 2f9f 84be
000003f0: bd14 8bbe 9568 31be 6693 bdbe 1963 7fbd

fc.bias f4 [10]
-0.4917935 0.66811275 -0.24957898 -0.32173526 -0.18409696 0.7505744 -0.74739814 0.60895276
-0.8728816 -0.09403044
00000000: 5ccc fbbe 7009 2b3f a291 7fbe 7cba a4be
00000010: ea83 3cbe a525 403f 7c55 3fbf 54e4 1b3f
00000020: 2b75 5fbf 0893 c0bd
