best_model_weights/symmetry_loss.pth (torch, 383712 bytes, 4 tensors)

fc1.weight f4 [120, 784]
000000 76 71 1d be cb b6 33 be 57 95 9b 3d 94 17 2d bd
       -0.15375313 -0.17550199 0.07596844 -0.042258814
000010 3c 1d 2d 3e 81 fd eb bd e5 3b 13 be 54 29 0d 3e
       0.16905683 -0.115229614 -0.14378317 0.13785297
000020 5f b2 1f be 2d b2 e0 bd 1c 13 e8 3b 6a 49 ea bd
       -0.15595387 -0.10971484 0.007082356 -0.11439784
000030 32 23 2e bd 89 67 85 be 9c 66 5c 3d d2 5c 1c 3b
       -0.042514034 -0.26055554 0.053808793 0.0023859036
000040 bb 75 bb bd 23 94 e7 bc 05 95 49 3d 65 c6 b4 bc
       -0.09153315 -0.02826888 0.04921438 -0.022067258
000050 9c 97 19 bd d2 dd 86 be 08 50 4a bd 65 d4 fb 3d
       -0.0374981 -0.2634111 -0.04939273 0.122963704
000060 81 14 fe 3d 4e ae 1c 3e 97 4b fa 3c 7a 32 c6 3d
       0.124062546 0.15300867 0.030553622 0.096775964
000070 83 69 40 3e 52 12 49 be 00 5c 07 3e ed 51 e8 3d
       0.1879025 -0.19635895 0.13218689 0.11343751
000080 2a cc 47 be f1 e3 3c 3e 83 53 e1 bd e9 4c f8 bc
       -0.19511476 0.18446328 -0.11002257 -0.030310111
000090 93 a4 77 bd c3 26 e7 bd cb 04 c7 bc 2d ae 46 bb
       -0.060459685 -0.1128669 -0.024294278 -0.003031622
0000a0 5e f3 e0 bd 8c a8 5d be 0f d0 fa 3d bb b9 92 bd
       -0.109839186 -0.21646327 0.12246715 -0.071643315
0000b0 cc 4a 1e be ab 3b 2c 3e 45 bb d3 3d e0 97 0c bd
       -0.1545822 0.16819637 0.10338453 -0.034324527
0000c0 47 ab ca bd e8 f0 05 bd d6 09 64 3d 19 93 cb 3c
       -0.0989595 -0.03270045 0.055673443 0.024850415
0000d0 38 4d 96 bd 9b f0 5a bd 02 fa d9 3d 7b 66 91 bd
       -0.07338947 -0.053452116 0.10643388 -0.07099625
0000e0 f8 d5 10 3e 2a 27 3b 3e 51 b2 a5 bd dd 9e cb bc
       0.14144123 0.18276659 -0.08090652 -0.024856025
0000f0 06 10 6d be e9 eb 21 3c 48 d9 d4 3b ed 36 2a bc
       -0.23150644 0.0098829055 0.0064956285 -0.010389072
000100 da 1b d8 3b 0d 65 9f 3c 98 08 3a 3b b6 b3 25 be
       0.006595117 0.019457364 0.002838647 -0.16181836
000110 e7 95 4d be aa 5c 5c bc 19 71 6b bc b5 6c 09 3c
       -0.20076714 -0.013449827 -0.014370226 0.008387734
000120 7d 40 f1 bd 94 bc 5a 3d 5f f1 14 3e 5f 72 f1 bd
       -0.11779878 0.0534025 0.14545201 -0.11789393
000130 5e 55 dc 3d 80 99 39 bd 8e a1 09 3d 5f ce 02 bd
       0.1075847 -0.045312405 0.033601336 -0.031935092
000140 28 a5 c7 bd 97 0d 37 3e dc 47 d1 3b 85 6d 0f bd
       -0.09748298 0.17876278 0.00638674 -0.035016555
000150 94 43 0f 3a 2d 57 19 3e 22 73 32 be 79 fa 13 be
       0.0005465087 0.14974661 -0.17426732 -0.14451016
000160 f8 30 aa bd e9 36 ae bd 25 e8 1b be 85 14 e2 bd
       -0.08310121 -0.08506567 -0.15225275 -0.1103907
000170 2d 95 aa bd 70 ce c9 bd cb c9 1b be 14 f9 be bd
       -0.08329234 -0.09853828 -0.15213697 -0.09324852
000180 8d 6e 78 bd 98 b3 2e be bf 6a 32 bb 60 40 37 bd
       -0.060652304 -0.17060697 -0.002722427 -0.044739127
000190 11 d9 89 be 32 de 68 3c d3 39 cd bd 79 5d c7 bd
       -0.2692342 0.014213132 -0.10020795 -0.09734625
0001a0 c6 99 a3 3d b2 73 b3 bd 10 2d 2d 3d b1 69 fa bc
       0.07988314 -0.087623015 0.042279303 -0.030567976
0001b0 d9 d0 09 3e 97 41 56 3d 88 77 22 be 72 3a 44 3e
       0.13458575 0.052308645 -0.1586591 0.1916292
0001c0 1c ce 08 3e 2e 43 57 3e 1d 75 3e bd 65 18 a6 3c
       0.13359874 0.21021721 -0.046498407 0.020275304
0001d0 fb 6a de 3c 6a ab a0 bc dc 74 9a 3d aa ef db 3c
       0.027150622 -0.019612987 0.075418204 0.02684768
0001e0 ee d5 23 be c9 82 e9 bd 69 bc 26 be fc 81 fe 3d
       -0.15999576 -0.114018984 -0.1628281 0.12427136
0001f0 78 78 56 3e 39 36 97 3d c4 96 5b 3c e9 59 25 bd
       0.20944393 0.07383389 0.013402645 -0.040368948
000200 42 67 86 bd 03 b3 16 3e 08 2e ba 3d f3 68 77 3d
       -0.065626636 0.14716725 0.09090811 0.06040282
000210 e6 d4 58 3e 90 75 3e 3e 87 f2 31 bd 3c 25 3e bd
       0.21174964 0.18599534 -0.043444183 -0.04642223
000220 51 00 0d be 16 fc 5d 3e 03 0b 20 3e 30 28 f8 bd
       -0.13769652 0.21678194 0.156292 -0.1211704
000230 54 3f 17 3e 0c c1 25 be b1 ab bc bd c1 d1 1e 3e
       0.14770252 -0.16186923 -0.09212435 0.15509702
000240 e3 d8 17 3d d0 c2 78 bd fc 14 5c bd 69 8d 01 be
       0.037072074 -0.060732663 -0.05373095 -0.126516
000250 e2 ed 83 bd 39 3f e8 bb 22 20 2a 3c e1 78 9e 3d
       -0.06441857 -0.007087615 0.010383638 0.077378996
000260 59 6d 65 3b 7d eb 11 3d ed 60 3e 3d f1 35 15 3d
       0.0035007803 0.03562497 0.046479154 0.036428396
000270 d2 3c 13 3e 47 a7 16 3d 2a 9f 30 3e 52 50 9b 3d
       0.1437867 0.03678062 0.17248216 0.07583679
000280 90 e0 8f bd 06 b0 06 3e 27 0b 49 3e cc cf a4 3d
       -0.07025254 0.13153085 0.1963316 0.080474466
000290 f0 7d 4e 3d 9a a1 42 bd c1 92 06 be 07 a9 21 3e
       0.050413072 -0.047517397 -0.1314192 0.15787135
0002a0 7a e3 24 3e 25 38 62 3e c5 2f e6 3d 2d 69 07 3e
       0.161024 0.2209173 0.1123958 0.13223715
0002b0 6a a6 89 3d 09 b5 89 3e d4 21 37 b9 49 76 19 3c
       0.06721194 0.2689593 -0.00017464842 0.00936658
0002c0 c9 96 8e bd c2 0e 2b be e7 9d 87 3d 02 ce a6 3c
       -0.06962354 -0.16704848 0.06621914 0.020361904
0002d0 e2 96 24 bd 9f 7f 0f bd 41 85 11 3e 0e a3 87 3d
       -0.040182956 -0.03503382 0.14210989 0.06622897
0002e0 90 b7 06 3e 2d 73 ae 3d b5 1d f7 3d c3 ef 90 3c
       0.13155961 0.08518062 0.12066213 0.017692452
0002f0 8e 24 5a be 62 d9 18 be a3 ec 04 3e 39 a8 36 3d
       -0.21303007 -0.14926675 0.12980895 0.044594023
000300 d3 ce 3c 3d bd 71 d4 3c 54 58 27 be 4e c5 d2 bd
       0.04609568 0.02593314 -0.16342288 -0.10291539
000310 d0 fb 4b 3d 8b af 16 3e 1c 17 71 be a3 30 cf 3d
       0.049800694 0.14715402 -0.23543972 0.101166986
000320 84 9f 23 3e 4a 3c a4 bc aa 05 9f 3d 56 12 9d 3d
       0.15978819 -0.02004828 0.07764752 0.07669513
000330 2a b3 e3 3b fa e1 60 3c 80 7f 40 3b a1 b5 33 3d
       0.0069488483 0.013725752 0.002937287 0.043874387
000340 87 a8 7f 3d 2c 89 98 3d fe e3 70 3e 2c 4b 5f bc
       0.06241658 0.074480385 0.23524472 -0.013628762
000350 87 1a 47 3d aa 14 96 3d fb f6 c5 bc 9e 01 a4 bd
       0.048609283 0.0732816 -0.024165621 -0.08008121
000360 2f cc 3d be 84 26 5e be d3 8d 13 be f9 3d e5 bd
       -0.18534921 -0.2169438 -0.1440957 -0.11193461
000370 c4 e6 96 3d 05 86 78 3d 27 18 d7 3d 74 d4 34 3e
       0.07368234 0.060674686 0.105026536 0.1765917
000380 68 8b 2c 3d b1 09 21 3e f6 dc b4 3d 58 bd ae 3d
       0.042125136 0.15726353 0.088312075 0.08532208
000390 87 f0 62 3e 3c 10 38 bc 0d cb 20 3e a7 d9 3c 3d
       0.22162066 -0.011234339 0.15702458 0.046106007
0003a0 15 fc 93 3d 48 7c 0c 3e 21 be 4f 3e 05 54 2d 3e
       0.07225815 0.13719285 0.20287372 0.16926582
0003b0 a8 fd 81 3d 94 2a 18 3e 19 f8 16 3e a1 4c 29 be
       0.06347209 0.14859992 0.14743079 -0.16533138
0003c0 7c c0 60 bc a8 cd 1a 3e fc 5c d3 bc b3 ee 8a bd
       -0.013717767 0.15117514 -0.025801174 -0.067838095
0003d0 4f 54 e6 bd c5 67 d0 bd d8 46 d6 bd 5e 8f 98 bd
       -0.11246549 -0.101760425 -0.10462731 -0.0744922
0003e0 e1 43 ab bd aa b6 0e 3e 76 fb 16 3d be f6 57 3d
       -0.08362556 0.13936868 0.036860906 0.052725546
0003f0 93 62 33 3e 01 ff 22 bd 73 0e c1 3d e3 0b 00 3e
       0.17518072 -0.039793972 0.09426584 0.12504534

fc1.bias f4 [120]
000000 54 5d db 3d df 5a 13 be 86 c9 64 3d e1 28 17 be
       0.1071116 -0.14390133 0.05585625 -0.14761688
000010 ad 27 55 be 7b 01 e3 3d 4a ea f6 bd 47 bb a8 3d
       -0.20815916 0.11084267 -0.12056406 0.08238845
000020 6f bb e0 bd a5 8e a8 3d e9 e3 47 3e b4 8b ff bd
       -0.1097325 0.08230332 0.19520535 -0.12477818
000030 52 37 74 3d 1b 6a 1c be d1 fd cd 3d 26 f8 12 be
       0.05962307 -0.15274851 0.10058177 -0.14352474
000040 cf b8 be 3d d9 85 cf 3d ee 28 2f 3e 3b 36 fc 3d
       0.09312593 0.10132951 0.17105457 0.12315031
000050 fa f1 be 3d 56 b3 ee bb 45 9d 02 3e 3c 5d f1 3c
       0.09323497 -0.007284562 0.12755306 0.029463403
000060 34 17 ba bd 79 46 23 be 9f 57 ca bd 11 8a 12 be
       -0.09086457 -0.15944852 -0.09879994 -0.1431048
000070 bb 4a 2c 3e 3b b2 cc 3c 22 e0 e0 3d 60 88 5d 3e
       0.16825382 0.02498733 0.1098025 0.21634054
000080 f5 39 b1 bd b5 4f 9d 3c 62 f3 8c 3d 48 29 df 3d
       -0.086536326 0.019203046 0.06882359 0.10896546
000090 ca 51 a1 bd 31 76 f1 3d 93 f5 cf 3d 7f 1a 07 be
       -0.07876928 0.11790121 0.101542614 -0.13193701
0000a0 29 b1 29 be 03 a1 89 3d 8c 78 0b 3d 30 65 10 3e
       -0.16571487 0.06720164 0.03405051 0.141011
0000b0 1d 63 5c 3e 13 6e d5 bd 3b 09 c4 bd fc b7 c4 3d
       0.21522184 -0.104213856 -0.09572073 0.09605405
0000c0 18 65 2a bc e4 4c d8 3d 8d 0f 73 3c 5f 05 d0 bd
       -0.010400079 0.10561541 0.014835251 -0.101572745
0000d0 39 5a 9a 3c ff e8 90 3c a0 8d ab 3c 77 08 32 bd
       0.01884185 0.017689226 0.020941556 -0.043465104
0000e0 e6 27 52 bd fa 21 5a be 5f 0b b5 3d cd 11 98 3d
       -0.05130758 -0.21302024 0.088400595 0.0742527
0000f0 93 48 1f be 6f 5f 92 3d b3 1c 13 bd 10 d5 1b 3e
       -0.15555029 0.07147109 -0.03591604 0.15217996
000100 43 08 81 bb d2 93 89 bd 59 81 0c 3e a7 f5 12 be
       -0.0039377525 -0.067176476 0.13721217 -0.14351521
000110 f8 ff 42 be 74 c9 9d bb d5 3a dd 3d c0 5a d2 3c
       -0.19042957 -0.004815275 0.10802237 0.025678039
000120 4b 03 90 bc 52 0a bc bd eb eb ce 3d 8f 84 20 3e
       -0.017579695 -0.09181656 0.101035915 0.15675567
000130 3e 41 04 3e 0c cd 58 3e 2c f4 e2 3c 22 45 25 3e
       0.12915513 0.21171969 0.02770432 0.16139653
000140 5c f2 46 be 14 fa 06 3e 8e 29 35 3e d3 a4 1f be
       -0.1942839 0.13181335 0.17691633 -0.15590219
000150 9c 42 51 3e 08 2d a6 3d b3 02 17 be b1 35 81 3d
       0.20435566 0.08114058 -0.14747123 0.06309069
000160 3c 73 de 3d 58 8a e9 bd 8c dd e2 3d ef 1d 8c 3d
       0.10861823 -0.1140334 0.11077413 0.06841647
000170 7b e4 39 be d8 70 c3 bd 63 4c 1b be 6d 47 1a 3d
       -0.18153565 -0.095430076 -0.15165858 0.037665773
000180 34 cb 08 3e e4 1e 25 bc d5 fc 36 3e ef 7b 0b 3d
       0.13358766 -0.010078166 0.17869885 0.03405374
000190 dc c6 8b 3d 0f 9e 8f 3d a9 c8 f6 bd da 2f 73 bc
       0.06825039 0.07012569 -0.12049992 -0.014842952
0001a0 cb f5 48 3e df 3e bd 3c 05 27 ff 3d 43 ac 0d 3e
       0.19625013 0.023101268 0.12458614 0.13835244
0001b0 c3 a4 c9 bd e0 60 72 3d 86 1a 6e bd 82 53 07 3d
       -0.09845879 0.05917442 -0.058130763 0.033038624
0001c0 43 f7 37 be 19 61 8a bd 84 5d 0c 3c 60 5a 1c 3d
       -0.17965417 -0.06756801 0.008567218 0.038172126
0001d0 f6 e7 bf 3d 12 fc eb bd 40 b1 91 3d 33 57 85 3d
       0.09370415 -0.11522688 0.07113886 0.065107726

fc2.weight f4 [10, 120]
000000 a1 f7 1e be 30 f6 18 3e 10 a0 3c 3e 7f 6e 27 3e
       -0.1552415 0.14937663 0.18420434 0.16350745
000010 a0 01 49 3d c6 6e 32 bd 8e cc 71 3d 65 93 2b 3e
       0.049073815 -0.043562673 0.05903297 0.16755445
000020 6f e3 22 3d 0f 8d e5 be 29 db ba be 89 62 fa 3d
       0.03976768 -0.44834182 -0.3649533 0.12225825
000030 df aa 8b bd b8 22 92 bb d9 37 40 3e 89 0c 32 3e
       -0.068197004 -0.004459705 0.18771304 0.17387594
000040 f2 db 43 be 89 b9 7e be 63 bd b2 3d 79 49 f7 3c
       -0.19126871 -0.24875464 0.08727529 0.030186402
000050 dd 72 d1 bc fc 5a 55 bd e8 bc 84 3e 7e 5a 05 bd
       -0.025567466 -0.052088723 0.25925374 -0.032557003
000060 2e 70 23 3d 59 87 5d 3e fb 71 04 3e 1f cc 64 3e
       0.039901905 0.21633662 0.12934105 0.22343491
000070 7a 35 37 bd 73 91 37 be 7f b0 7e be 2e 65 aa be
       -0.044728734 -0.17926578 -0.24872015 -0.3328032
000080 7c fa 33 3e 08 04 42 3e 2a 1a aa bc 43 1d 4f be
       0.17576021 0.1894685 -0.02076443 -0.20226006
000090 50 e9 f1 3d 6c 51 75 be fe 51 74 bd 5a f3 51 3d
       0.11812079 -0.23956841 -0.059648506 0.05125747
0000a0 64 9c 4d be 8b f0 ac be d7 8c c5 3d 58 15 52 be
       -0.2007919 -0.3377727 0.09646004 -0.20515954
0000b0 81 bf ea 3d 24 ca 0f be 69 02 17 3e 1d f4 8b be
       0.11462308 -0.14041954 0.14747013 -0.2733468
0000c0 fe 72 1d be d8 ff 8c be 39 29 be 3d f3 b2 3e be
       -0.15375897 -0.27538943 0.09285206 -0.18622951
0000d0 b6 73 75 bd 48 36 f5 3d 6f 25 43 be 93 88 f4 bc
       -0.059924804 0.11973244 -0.19057249 -0.02985028
0000e0 f9 44 90 3e 7c f9 08 3e d6 33 d0 be 8a f9 24 be
       0.28177622 0.1337642 -0.40664548 -0.16110817
0000f0 fb 01 2b 3e 49 03 75 be 10 96 2c 3e 67 03 af be
       0.16699974 -0.23927034 0.1685412 -0.34182283
000100 06 57 ab bd 69 2c bd be f8 4c 33 3e c7 2c 16 3e
       -0.08366208 -0.36947945 0.1750983 0.14665519
000110 90 70 92 be ea 30 14 3e 61 7c 5d 3d 8f 23 cb bd
       -0.28601503 0.14471784 0.054073695 -0.09918892
000120 ff f3 af 3e 40 c1 23 bd ea ff 88 be 7e b3 d3 bd
       0.34365842 -0.03997922 -0.26757747 -0.1033697
000130 d7 ca f4 3d a6 8b b2 3d ed df ce 3e 47 7c 72 be
       0.11952751 0.08718042 0.40405217 -0.2368022
000140 bf 61 de 3d a2 f4 46 3d 02 27 b8 be fe d2 28 3e
       0.10858487 0.048573144 -0.3596726 0.16486737
000150 2e 73 8a be 1a 65 94 be 1b d7 4c be 66 ca d6 bd
       -0.27041 -0.28983384 -0.20003931 -0.10487823
000160 89 44 0e bd e8 87 4b 3e bd 28 0f be 12 62 89 be
       -0.03473333 0.19876063 -0.13980384 -0.26832634
000170 23 5a 17 3e b3 0e 38 3e 0c 7e 46 3e 90 29 23 3d
       0.14780478 0.17974357 0.1938402 0.03983456
000180 8c d2 41 3e 02 66 24 3e 8a 99 c9 be 8f e6 03 be
       0.18927974 0.16054538 -0.39374954 -0.1288092
000190 3a 22 15 be 85 eb dc 3d 12 79 d1 3d 9c 80 00 3e
       -0.14563838 0.10787109 0.102281705 0.1254906
0001a0 a7 bc 0d bd 56 3c 47 be 7b 86 f0 bd b6 0a 07 be
       -0.03460374 -0.1945661 -0.117444 -0.1318768
0001b0 1c d5 83 3e b3 11 d5 b8 df 8c 13 3e 70 ae eb 3c
       0.25748527 -0.00010159928 0.14409207 0.028769702
0001c0 49 91 ea 3d 33 7e 2e 3e cc db a3 3e a7 ca 8c be
       0.11453492 0.17040329 0.3200363 -0.2749836
0001d0 b2 d6 b6 bd af 8a 32 3e bf d2 1f be 5b 24 19 3e
       -0.08927669 0.17435716 -0.15607737 0.14955275
0001e0 49 73 7a 3e fe 62 37 be 8f c0 2e 3e eb ca 55 bd
       0.2445804 -0.17908856 0.17065643 -0.05219547
0001f0 1d c3 ea bd 86 7b a5 ba 60 63 3b be 7f b9 39 bd
       -0.11462996 -0.0012625314 -0.18299627 -0.04534292
000200 5f ba 5c bd 91 d5 dd 3e 95 82 15 3e ca af 58 be
       -0.053888675 0.43327 0.14600594 -0.21160808
000210 66 7a b2 3d 34 90 2a be fd 1d df 3c 83 7c 07 be
       0.08714752 -0.16656572 0.02723598 -0.13231091
000220 b0 56 68 be 3e a9 c8 3d 74 9a 46 3e 4c b5 a0 3e
       -0.22689319 0.097979054 0.19394857 0.3138832
000230 32 08 58 3d ee 54 db 3d e7 17 45 be 8e a0 25 3e
       0.05274219 0.107095584 -0.192474 0.16174528
000240 b7 3f a7 be a4 e5 74 be 7f 7c 19 be 8d 6b f7 bc
       -0.32665798 -0.23915726 -0.14988898 -0.030202651
000250 95 13 38 be e3 c9 e8 bd 76 83 f9 3d 82 62 ca 3e
       -0.1797622 -0.11366632 0.12183277 0.3952828
000260 c8 85 58 bd d6 68 01 3e 2c 9f 7f be 4d 20 1b 3e
       -0.05286196 0.12637648 -0.24963063 0.1514904
000270 5a 47 55 be 57 3e 01 3e 7f e4 b5 3d 0f e5 81 be
       -0.20828 0.12621437 0.08881473 -0.2537007
000280 d0 7b 39 be 7b 01 b3 3d 2c 5c 0c be ac e8 e7 3d
       -0.18113637 0.08740517 -0.13707036 0.113236755
000290 4f ad 62 be 14 08 56 bd 26 f5 43 be b6 40 72 be
       -0.22136424 -0.052253798 -0.19136485 -0.23657498
0002a0 b1 14 3e 3d 19 b6 8d 3e 9e 6e 37 be 56 e2 39 be
       0.04640645 0.27677992 -0.17913291 -0.18152747
0002b0 da 4f d7 3d ea d8 88 3e bf e3 e1 3c 75 c9 4b be
       0.10513277 0.26727992 0.027574418 -0.19901069
0002c0 fb ff 83 be 64 3a 42 be 5a ab ae 3e 05 e8 2e 3d
       -0.25781235 -0.18967587 0.34115106 0.04270174
0002d0 7b 71 1b be 32 b8 47 3d bf 99 b0 3d db 8c 9b 3e
       -0.15180008 0.048759647 0.08623075 0.30380902
0002e0 b6 38 77 3e 69 34 3b 3e 1b fd 7b 3e 85 cf 0b be
       0.24142727 0.18281712 0.24608271 -0.13653381
0002f0 ba 1e c4 be 05 97 4d be 24 7e 88 3e 63 eb 03 be
       -0.38304693 -0.2007714 0.26658738 -0.12882762
000300 a2 12 a5 be b5 6e 6b be b3 d3 1e 3e b6 d2 5d 3e
       -0.32240778 -0.2299145 0.15510444 0.21662411
000310 2b 79 ae bd 8e 49 21 3e 75 ee 89 bd b0 d8 80 3e
       -0.08519205 0.15750715 -0.06734935 0.2516532
000320 02 5a 41 be d7 fc d4 bd 7b 33 90 3e d4 0c 0d be
       -0.18881992 -0.10399788 0.28164276 -0.13774425
000330 1a 6e 6b 3e c5 d5 1f 3e e8 b3 64 be 14 e2 3e 3e
       0.22991219 0.1560889 -0.22334254 0.1864093
000340 a2 e7 37 be 73 63 90 be 46 50 56 be f9 3d ef bd
       -0.17959455 -0.28200874 -0.2092906 -0.11681742
000350 9d 54 5a be ff 6b 68 bd f6 73 32 bd 32 a6 04 3e
       -0.2132134 -0.056743618 -0.04356762 0.12954023
000360 75 d2 94 bc 94 87 e6 bd 81 f7 b0 3e 84 26 06 3e
       -0.01816676 -0.11256328 0.3456383 0.1310063
000370 de 1e 54 be 1e a0 17 be 61 a2 fe bd 54 46 6a be
       -0.207149 -0.14807174 -0.12433315 -0.2287839
000380 08 90 30 3e 76 66 08 3e eb af 8d 3e 74 dd 37 be
       0.17242444 0.13320336 0.27673277 -0.17955571
000390 d7 10 f6 bd 5b 90 89 3e 2d ad fd 3d 37 02 80 3e
       -0.12014931 0.26867947 0.12386546 0.2500169
0003a0 8c 95 5a be c3 62 0c be 89 9a 23 bd ce 9b 89 3d
       -0.2134611 -0.1370955 -0.039942298 0.067191705
0003b0 4a c5 47 3e aa e6 90 bc 0c 04 bf 3d cb 7a 49 be
       0.19508854 -0.017688114 0.09326944 -0.19675748
0003c0 78 39 9b 3e 87 35 5c bd 9d 8b 81 bd e0 5d 50 3e
       0.30317283 -0.053761985 -0.06325457 0.2034831
0003d0 bb 1f dc 3e 57 c3 df bd 48 79 4b 3e 70 a2 9c be
       0.42992958 -0.1092593 0.19870484 -0.3059268
0003e0 88 eb 37 be e4 a5 57 3e 74 60 dd 3e b9 20 33 3d
       -0.17960942 0.21059376 0.4323765 0.04373238
0003f0 15 3d 8e be 8a 92 40 3e 68 77 ba 3d 45 22 5d 3e
       -0.27780977 0.188059 0.09104806 0.21595104

fc2.bias f4 [10]
000000 d3 5c 40 bd b4 d7 20 3e 81 9b e4 bd ae 60 4a be
       -0.046963524 0.15707284 -0.111624725 -0.19763443
000010 e7 37 84 3d 47 34 33 3e d9 26 14 be f4 17 28 3e
       0.06455975 0.17500411 -0.14467944 0.16415387
000020 46 a0 bc bd e0 48 15 3c
       -0.09210257 0.009111613
